doubledqn_agent_fixed_grid.pth (torch, 77113 bytes, 6 tensors)

fc1.weight f4 [128, 11]
-0.027005153 0.15656166 0.27550346 -0.09115762 0.23050934 -0.23329127 -0.17668186 -0.28105038
0.13192143 0.077220984 -0.057165887 0.27744365 -0.11971878 0.1661191 -0.053256813 0.26118788
0.07974806 -0.045533072 0.075313315 0.046909172 -0.25960666 0.20723683 0.18713525 0.05088666
-0.17625403 -0.16555946 0.086784035 -0.16640624 -0.13937952 0.16155952 0.06334859 0.027102709
0.0018185675 0.25221425 0.12792753 -0.21186301 -0.27255476 -0.18775378 -0.048938062 -0.18370849
0.2526205 -0.06627732 0.23203088 0.15071079 0.29102397 -0.15927857 0.1578526 0.13342968
-0.09901406 -0.19883022 -0.21808276 -0.039872218 -0.2067681 0.2833315 -0.107502 -0.037530176
0.08826701 -0.26909435 -0.09007201 -0.2641792 0.09627989 0.30048275 0.27680477 0.18045498
0.18702702 -0.20615502 -0.19385825 0.017982416 0.006074815 -0.17387302 0.17969193 -0.024551073
0.18581595 0.006220617 0.09578397 0.05235879 0.020201849 0.19102627 -0.074791156 0.17342019
0.051004656 0.0397295 0.22404419 0.052041482 0.03436008 -0.22489645 -0.1489497 -0.118908666
-0.25589794 0.2104318 0.23402014 0.24344115 -0.1038472 0.19185276 -0.19288854 0.20352185
-0.051379126 0.2369019 -0.1560681 0.21734814 -0.10392312 0.2724838 -0.050084874 -0.22880287
-0.29036188 -0.032899596 0.098317005 -0.07429147 0.19333833 -0.2402046 -0.12796548 0.044600353
0.015529629 -0.113591686 0.19264515 -0.12200454 0.2786079 0.14478508 0.12669402 0.031651147
-0.21634014 0.0038642883 0.26385134 0.12285054 0.054516077 -0.09768914 -0.22474787 -0.19451231
-0.26775312 -0.289431 0.029440045 -0.08837952 0.09914247 -0.13455452 -0.2275752 -0.15832993
-0.09654494 0.06534109 -0.108807996 -0.24447267 0.16179165 -0.23381361 -0.26959065 -0.17915007
0.2834953 0.15713933 0.18339786 -0.23273192 0.06629438 0.105034694 0.28249845 -0.09410892
0.013257125 -0.2215103 -0.24191757 -0.14900799 0.12493259 -0.09964367 -0.16434254 0.20064534
-0.08995807 0.20294303 0.25063187 -0.23706327 0.06466066 0.04121247 0.25063893 -0.07322699
0.27120578 -0.23099972 -0.17530333 -0.17154375 -0.111932285 0.10960391 0.2431159 -0.0021530024
-0.2136776 -0.14706282 0.27951258 0.06783262 0.2059258 -0.13067584 -0.28277493 0.11464613
0.03778367 0.059197325 0.24520902 -0.21510872 -0.09001848 0.22881573 -0.1264104 -0.22804086
-0.28564778 0.08711478 -0.29061955 -0.009816229 0.07068959 -0.11511913 -0.24908027 0.04011538
-0.27852917 -0.095023945 0.05675181 -0.22231086 0.07529791 0.21889882 0.19760826 0.1631198
0.016706733 -0.14203575 0.24248877 -0.06698387 -0.08090753 -0.19873619 -0.2209466 -0.14922181
0.23533633 -0.12255883 -0.2812367 -0.032089874 0.25789616 0.20270787 0.04566303 0.058509465
-0.2236961 0.13539164 0.12072584 -0.15405005 -0.093729906 0.22512852 0.1674841 -0.061690964
0.252803 -0.0054048006 0.086928464 0.03529745 0.08991501 -0.1752229 -0.114430696 0.081449516
-0.09757483 0.21432413 -0.18140747 0.25168622 -0.049837917 0.072757065 -0.04927659 -0.29784974
0.13920987 0.22560465 -0.03596136 -0.2703928 -0.06720337 0.27293375 -0.18999295 -0.21335965
00000000: e939 ddbc b351 203e ca0e 8d3e d9b0 babd
00000010: a40a 6c3e e8e3 6ebe 17ec 34be d6e5 8fbe
00000020: 6916 073e 0926 9e3d c726 6abd 180d 8e3e
00000030: 1f2f f5bd 201b 2a3e d123 5abd 6bba 853e
00000040: f352 a33d e380 3abd de3d 9a3d d523 403d
00000050: 2aeb 84be e435 543e 62a0 3f3e 886e 503d
00000060: f07b 34be 6b88 29be d4bb b13d 6666 2abe
00000070: 81b9 0ebe dc6f 253e e8bc 813d 8006 de3c
00000080: 005d ee3a 3a22 813e 6fff 023e 9ef2 58be
00000090: 4c8c 8bbe 8742 40be 4773 48bd 141e 3cbe
000000a0: 7957 813e 67bc 87bd 8199 6d3e ee53 1a3e
000000b0: 1801 953e ec19 23be 1da4 213e caa1 083e
000000c0: e2c7 cabd 269a 4bbe 1651 5fbe 0d51 23bd
000000d0: 04bb 53be d410 913e 022a dcbd 3eb9 19bd
000000e0: 56c5 b43d bcc6 89be ad77 b8bd 7f42 87be
000000f0: 642e c53d e0d8 993e 5bb9 8d3e 31c9 383e
00000100: 0384 3f3e 4d1a 53be c782 46be dc4f 933c
00000110: 3e0f c73b c50b 32be 2901 383e 551f c9bc
00000120: 8946 3e3e 51d6 cb3b 632a c43d 2c76 563d
00000130: 597e a53c 649c 433e 1b2c 99bd 1095 313e
00000140: 42ea 503d 66bb 223d d76b 653e 7329 553d
00000150: 28bd 0c3d 414b 66be 4586 18be 6386 f3bd
00000160: 0e05 83be 6f7b 573e faa2 6f3e a348 793e
00000170: d7ad d4bd 0d75 443e 9384 45be 0868 503e
00000180: eb72 52bd 6996 723e 51d0 1fbe 8390 5e3e
00000190: a5d5 d4bd ff82 8b3e cc25 4dbd 4d4b 6abe
000001a0: 50aa 94be bac1 06bd 6d5a c93d 2026 98bd
000001b0: 7cfa 453e 32f8 75be 6209 03be dcae 363d
000001c0: fc6f 7e3c c2a2 e8bd c544 453e 84dd f9bd
000001d0: b2a5 8e3e 8a42 143e 14bc 013e a2a4 013d
000001e0: 4588 5dbe 0040 7d3b 8617 873e 1099 fb3d
000001f0: 404c 5f3d 3e11 c8bd 4e24 66be 3c2e 47be
00000200: f016 89be 4d30 94be 402c f13c 5200 b5bd
00000210: 350b cb3d a9c8 09be 7909 69be 3e21 22be
00000220: 5ab9 c5bd 8dd1 853d bad6 debd 0b57 7abe
00000230: b6ac 253e d66c 6fbe c907 8abe 1e73 37be
00000240: 4c26 913e 22e9 203e a6cc 3b3e 4751 6ebe
00000250: 59c5 873d 6e1c d73d a3a3 903e 2dbc c0bd
00000260: 6a34 593c 99d3 62be 3db9 77be 8d95 18be
00000270: a8dc ff3d fb11 ccbd 6949 28be f975 4d3e
00000280: f03b b8bd 4cd0 4f3e d252 803e b7c0 72be
00000290: cf6c 843d 68ce 283d bf53 803e 08f8 95bd
000002a0: 7cdb 8a3e 318b 6cbe b782 33be 2aa9 2fbe
000002b0: c13c e5bd 0478 e03d 60f3 783e 6319 0dbb
000002c0: 4dce 5abe a397 16be 461c 8f3e d4eb 8a3d
000002d0: 37de 523e e3cf 05be e0c7 90be 97cb ea3d
000002e0: 0dc3 1a3d e578 723d 1318 7b3e 7645 5cbe
000002f0: 9c5b b8bd ac4e 6a3e ba71 01be 8b83 69be
00000300: 6d40 92be 3c69 b23d 16cc 94be 40d4 20bc
00000310: b4c5 903d 94c3 ebbd e60e 7fbe 0650 243d
00000320: 609b 8ebe ea9b c2bd 9674 683d 75a5 63be
00000330: ca35 9a3d 0327 603e d259 4a3e e008 273e
00000340: 8fdc 883c d271 11be fa4e 783e d72e 89bd
00000350: d9b2 a5bd 8081 4bbe d33f 62be 9acd 18be
00000360: 02fc 703e 2000 fbbd 42fe 8fbe ac70 03bd
00000370: f70a 843e a792 4f3e 2809 3b3d 9fa7 6f3d
00000380: 9710 65be 1ba4 0a3e 1c3f f73d 4cbf 1dbe
00000390: 77f5 bfbd 1788 663e f480 2b3e aaaf 7cbd
000003a0: 656f 813e c11a b1bb 8d07 b23d 0f94 103d
000003b0: 5c25 b83d a26d 33be a45a eabd 01cf a63d
000003c0: 50d5 c7bd c977 5b3e e1c2 39be 04dd 803e
000003d0: d822 4cbd a801 953d 40d6 49bd c37f 98be
000003e0: 088d 0e3e e804 673e 384c 13bd ed70 8abe
000003f0: eca1 89bd f9bd 8b3e 838d 42be f47a 5abe

fc1.bias f4 [128]
0.038590144 -0.2278691 -0.19778948 -0.023717782 -0.08686858 0.055460572 0.16440639 0.03611657
-0.0456589 -0.27882937 -0.006386673 -0.042298734 0.14072949 -0.20728207 -0.19037549 -0.16413088
-0.28119475 0.1835469 0.2307149 0.2385786 -0.26453632 -0.06787054 -0.1710597 0.08185482
0.26368374 0.031641666 0.1459721 0.185803 0.17832719 0.091229334 0.00074242376 0.28388038
-0.039569426 -0.15340696 0.20682587 0.21293876 0.047764346 -0.004351363 0.08261225 0.30690178
0.17419018 -0.1295136 0.26160234 0.16499135 -0.2752303 -0.2572306 -0.14951313 0.16193639
0.19518565 0.09375155 -0.24399817 0.19105329 -0.20262922 -0.08918211 -0.10375334 -0.041143317
0.13470739 0.2081079 0.22498351 -0.009380072 0.19453226 -0.036565248 -0.22852866 0.21983755
-0.12030322 -0.17126429 0.1763067 0.26895744 0.14109506 -0.013767899 0.24371177 -0.25392362
0.2708271 0.2074588 0.046394065 -0.122409225 -0.25326985 0.09299426 -0.2908339 0.12494308
-0.06868343 -0.06856963 0.2906149 0.1182669 0.016868921 -0.219767 -0.25313276 -0.26722607
-0.2618015 0.058149457 -0.04283912 0.09058277 0.2549092 0.13006897 0.20556463 -0.08209955
-0.13762164 -0.1757109 -0.181794 0.20817687 0.18316647 0.27017537 -0.17321697 -0.054235894
0.10575403 -0.06833979 -0.0033347772 -0.2742575 -0.24643193 -0.22536501 0.2557724 0.007683644
-0.22098292 0.102678895 -0.21957518 0.12675576 0.060802154 0.25857863 0.26531276 -0.0856391
0.29089764 -0.016006311 -0.054868672 -0.23450464 -0.03614908 0.030245673 -0.2508394 -0.13946937
00000000: b310 1e3d 8456 69be 5389 4abe cb4b c2bc
00000010: 27e8 b1bd a02a 633d 265a 283e f8ee 133d
00000020: d404 3bbd b9c2 8ebe 4c47 d1bb 7041 2dbd
00000030: 641b 103e c041 54be cbf1 42be ed11 28be
00000040: c2f8 8fbe b8f3 3b3e 8740 6c3e f34d 743e
00000050: 4e71 87be b6ff 8abd 462a 2fbe 80a3 a73d
00000060: 8e01 873e b19a 013d b679 153e 2443 3e3e
00000070: 679b 363e 72d6 ba3d 379f 423a c558 913e
00000080: 8d13 22bd b716 1dbe 29ca 533e 9e0c 5a3e
00000090: 8ca4 433d e195 8ebb 9c30 a93d 3b22 9d3e
000000a0: e95e 323e 379f 04be bef0 853e 7ef3 283e
000000b0: fcea 8cbe bbb3 83be f819 19be a7d2 253e
000000c0: bfde 473e d000 c03d a8da 79be 79a3 433e
000000d0: 097e 4fbe 1ca5 b6bd a27c d4bd e585 28bd
000000e0: bcf0 093e 3d1a 553e 1462 663e e0ae 19bc
000000f0: 7733 473e 71c5 15bd 6b03 6abe 181d 613e
00000100: 8961 f6bd e85f 2fbe be89 343e cab4 893e
00000110: 397b 103e c192 61bc 948f 793e 4702 82be
00000120: daa9 8a3e 1470 543e b407 3e3d b0b1 fabd
00000130: 96ac 81be c673 be3d 2ee8 94be 28e2 ff3d
00000140: e6a9 8cbd 3c6e 8cbd 7acb 943e eb35 f23d
00000150: b130 8a3c 9a0a 61be 9e9a 81be dbd1 88be
00000160: d90a 86be 202e 6e3d 1378 2fbd 7683 b93d
00000170: 7583 823e cd30 053e 897f 523e cf23 a8bd
00000180: b0ec 0cbe 8fed 33be 3528 3abe 512c 553e
00000190: fe8f 3b3e 6d54 8a3e ca5f 31be 7526 5ebd
000001a0: 9295 d83d bbf5 8bbd 478c 5abb 7b6b 8cbe
000001b0: a758 7cbe 16c6 66be 9af4 823e 14c7 fb3b
000001c0: 5949 62be 5049 d23d 51d8 60be 43cc 013e
000001d0: ae0b 793d 6b64 843e 13d7 873e 8d63 afbd
000001e0: 89f0 943e ab1f 83bc f9bd 60bd fc21 70be
000001f0: 0f11 14bd c6c5 f73c 066e 80be 0fd1 0ebe

fc2.weight f4 [128, 128]
0.055164956 -0.024483413 0.0048833936 -0.04703643 -0.04969375 0.038251527 0.04866361 -0.01029145
0.014326662 0.03745558 0.021075249 0.028032012 -0.05374961 0.02304054 0.085579224 -0.041932035
-0.0776491 -0.023043886 0.03875541 -0.05308583 0.06640863 -0.05987732 -0.032455087 -0.010356471
0.040939905 -0.048535552 -0.07933712 -0.05502061 0.07751083 0.05925872 -0.020180553 -0.05625014
0.0492777 0.06145688 0.07206898 -0.070569456 0.06993046 -0.07459082 0.07126226 -0.03908335
0.017498896 0.01916612 -0.0019517392 -0.031299062 -0.024365366 0.011797808 -0.026786651 0.063474424
-0.061699644 0.02473116 -0.013711214 -0.07394317 0.026222423 -0.020345598 0.019903459 -0.0674387
0.035996504 0.021504238 0.006507434 -0.04536672 -0.019282468 -0.07436735 -0.07865217 -0.07289684
0.08426239 0.08178062 0.011197574 -0.0025655106 -0.029552188 0.01638934 0.049312092 -0.022411756
-0.05213931 0.041987143 -0.04973833 -0.06752136 -0.061619505 0.026346363 0.071304165 0.029619321
-0.056147926 -0.012049288 -0.054347623 0.056982882 0.0349887 -0.046005465 -0.012234479 0.03800089
0.07170423 0.008128315 -0.05123213 0.0461014 -0.072072186 -0.0109048635 -0.061634865 0.06466287
-0.072296806 0.034807056 -0.05875417 0.021451175 -0.05264844 0.061859228 0.0026843846 0.06919784
0.0133444965 -0.04718128 -0.012374252 0.08214531 -0.081926264 0.03952212 0.07925133 -0.084405825
-0.061950386 -0.06506227 0.036011197 -0.0114598945 0.0810545 0.08408026 0.038899906 0.030078955
-0.04777916 0.01821018 -0.054257292 0.032223962 0.006678909 -0.05896359 0.018588446 0.023471013
-0.09284631 0.0493451 -0.029134441 -0.046566293 0.07118588 0.077259384 0.041405972 0.054327037
0.05310978 -0.037241086 0.015677925 -0.080315456 0.047767714 -0.07185734 0.07351913 -0.010422521
-0.025643231 0.07184615 0.08721522 -0.077414185 0.038735326 -0.09623371 0.0505004 -0.015896682
-0.045140922 -0.00944271 0.05273705 -0.06844072 -0.051961336 -0.003785364 0.01697491 -0.002344506
0.015990574 0.051632367 -0.036548153 0.06032946 0.01602053 -0.04520551 -0.057984862 -0.081248574
-0.011114312 -0.051200442 0.0031377233 -0.049073145 0.064820595 0.05564506 -0.026537549 0.008054946
0.05779299 -0.06826439 -0.03834416 0.072372384 -0.07874316 -0.027743977 0.005746525 -0.09325679
-0.02896541 -0.044587158 0.042665314 -0.07193898 0.029167583 -0.095877185 -0.04196585 0.029976003
0.05110191 -0.08196614 -0.042845927 0.072319984 -0.034415457 0.0046942458 0.00024442383 -0.035153434
0.0125251645 0.040565174 0.012270563 -0.06378901 -0.016758211 -0.007751984 0.023670856 -0.0054090344
0.03643833 -0.0053429673 0.04892932 0.08517428 -0.03496269 0.025600892 -0.09509958 0.08262768
0.07022167 -0.0038851306 -0.094205976 0.0458939 -0.031407043 0.021023218 0.06311575 0.0073432866
-0.08727753 -0.022362366 0.06699802 0.009955174 -0.011657239 0.08285647 -0.027702987 0.002084434
-0.086556405 0.055385135 0.008706905 0.021251263 -0.057552923 0.00095862895 0.06650029 0.06722768
-0.03175226 0.044884197 -0.086658195 0.044496417 -0.015187951 -0.030310968 -0.07359119 -0.029573785
0.055380594 -0.013987174 -0.07273918 0.055960048 -0.022684855 -0.033920355 0.0102337 0.039490588
00000000: a6f4 613d 7091 c8bc e004 a03b 46a9 40bd
00000010: ac8b 4bbd a2ad 1c3d 7e53 473d 789d 28bc
00000020: 60ba 6a3c 066b 193d 00a6 ac3c 64a3 e53c
00000030: 8d28 5cbd 84bf bc3c 2944 af3d edc0 2bbd
00000040: 7e06 9fbd 88c6 bcbc febd 1e3d 8770 59bd
00000050: 3f01 883d ec41 75bd a0ef 04bd 30ae 29bc
00000060: 9ab0 273d 37cd 46bd 807b a2bd 4b5d 61bd
00000070: ffbd 9e3d 46b9 723d b051 a5bc 8c66 66bd
00000080: 6ad7 493d 36ba 7b3d e798 933d b886 90bd
00000090: b337 8f3d 12c3 98bd f3f1 913d dd15 20bd
000000a0: d859 8f3c 4402 9d3c 80d1 ffba 7233 00bd
000000b0: e099 c7bc 984b 413c ae6f dbbc e1fe 813d
000000c0: c4b8 7cbd 0099 ca3c 00a5 60bc 846f 97bd
000000d0: 68d0 d63c d0ab a6bc 940c a33c 4d1d 8abd
000000e0: 1271 133d a829 b03c 503c d53b 74d2 39bd
000000f0: 44f6 9dbc e94d 98bd 6414 a1bd f04a 95bd
00000100: c391 ac3d 997c a73d 0876 373c 2022 28bb
00000110: 6e17 f2bc f042 863c 7afb 493d dc98 b7bc
00000120: 0790 55bd b6fa 2b3d 6bba 4bbd a448 8abd
00000130: bc64 7cbd 54d4 d73c eb07 923d 38a4 f23c
00000140: 5efb 65bd 606a 45bc 9d9b 5ebd e266 693d
00000150: 5050 0f3d 3a70 3cbd 2073 48bc d2a6 1b3d
00000160: abd9 923d a02c 053c c8d8 51bd d2d4 3c3d
00000170: 959a 93bd 50aa 32bc d774 7cbd f76d 843d
00000180: 5910 94bd d891 0e3d 36a8 70bd 60ba af3c
00000190: e4a5 57bd 1a60 7d3d 80ec 2f3b 99b7 8d3d
000001a0: e0a2 5a3c 2841 41bd 60bd 4abc cd3b a83d
000001b0: f5c8 a7bd f2e1 213d 854e a23d f6dc acbd
000001c0: b0bf 7dbd 5e3f 85bd 7a80 133d 48c2 3bbc
000001d0: e7ff a53d 4532 ac3d 8255 1f3d 2468 f63c
000001e0: 15b4 43bd 842d 953c e53c 5ebd 46fd 033d
000001f0: c0da da3b ce83 71bd cc46 983c 4846 c03c
00000200: 3526 bebd 161e 4a3d 5aab eebc 4cbc 3ebd
00000210: e7c9 913d 2b3a 9e3d 4f99 293d 0786 5e3d
00000220: a489 593d 1c8a 18bd fe6e 803c 6e7c a4bd
00000230: 14a8 433d f129 93bd 3391 963d 39c3 2abc
00000240: c111 d2bc 1324 933d e59d b23d 548b 9ebd
00000250: efa8 1e3d 2e16 c5bd 82d9 4e3d c239 82bc
00000260: b0e5 38bd 99b5 1abc ce02 583d a62a 8cbd
00000270: 69d5 54bd df13 78bb f70e 8b3c 49a6 19bb
00000280: aafe 823c 767c 533d 84b3 15bd 061c 773d
00000290: 7d3d 833c 6a29 39bd 8981 6dbd a765 a6bd
000002a0: ce18 36bc 8eb7 51bd 43a2 4d3b ec00 49bd
000002b0: a9c0 843d 13ec 633d 4665 d9bc e4f8 033c
000002c0: 58b8 6c3d 33ce 8bbd c40e 1dbd f937 943d
000002d0: 1844 a1bd 5647 e3bc 584d bc3b 6afd bebd
000002e0: de48 edbc 06a1 36bd d3c1 2e3d be54 93bd
000002f0: dbf0 ee3c 425b c4bd 62e4 2bbd 3c90 f53c
00000300: 3d50 513d dddd a7bd 367f 2fbd 801c 943d
00000310: 39f7 0cbd 30d2 993b 0326 8039 0cfd 0fbd
00000320: 5936 4d3c ab27 263d 790a 493c d0a3 82bd
00000330: 8448 89bc 5b04 febb 62e9 c13c 453e b1bb
00000340: 5c40 153d 0f14 afbb 1c6a 483d da6f ae3d
00000350: 0a35 0fbd f6b8 d13c 92c3 c2bd b338 a93d
00000360: 61d0 8f3d ad9d 7ebb 10ef c0bd 3efb 3b3d
00000370: aca4 00bd e238 ac3c d542 813d f49f f03b
00000380: 90be b2bd 4831 b7bc 4236 893d 071b 233c
00000390: 01fe 3ebc a7b0 a93d 60f1 e2bc 009b 083b
000003a0: 7c44 b1bd 86db 623d 68a7 0e3c 2117 ae3c
000003b0: 9dbc 6bbd 804c 7b3a 4e31 883d aaae 893d
000003c0: a80e 02bd 7ed8 373d da79 b1bd e041 363d
000003d0: e2d6 78bc b54e f8bc fab6 96bd b944 f2bc
000003e0: c3d6 623d 762a 65bc 47f8 94bd 5d36 653d
000003f0: 97d5 b9bc 12f0 0abd 40ab 273c e2c0 213d

fc2.bias f4 [128]
-0.066293 0.06914206 0.019919459 -0.026596205 -0.058885045 -0.0721482 0.036832403 0.03707797
0.047213662 0.0039215535 0.067093596 0.02215188 -0.009976886 0.065313034 0.08279946 0.028712247
-0.07232053 -0.06845773 0.021546306 0.091392 -0.060267765 -0.08705522 -0.032542545 0.051578738
-0.045218203 0.058613706 0.044746332 -0.015984533 -0.041322567 0.08126241 -0.040782787 -0.04726201
-0.015648186 -0.055229783 -0.04754926 0.0046879277 -0.025398526 -0.019674815 0.0563697 0.07584268
0.08031065 -0.052042697 -0.056255914 -0.038715113 -0.0057177036 -0.07831163 -0.036477476 -0.06890178
0.042061634 0.062094525 0.058085155 0.08257703 -0.07334888 -0.02109617 0.079780556 0.0024290457
0.072898105 -0.0056849355 -0.035958745 0.04617866 0.012877009 0.0073551326 0.014011778 -0.06476219
-0.0022705768 0.04221075 0.026841529 0.042990066 0.015176006 0.048334558 -0.037720844 0.07845363
-0.08532125 -0.03688792 0.032587465 0.06998845 0.018964201 0.038293734 0.02313377 0.08238522
0.0071156053 -0.0071378835 0.03546722 0.018232716 -0.06990569 -0.035696253 -0.046280622 -0.008654801
0.024729723 0.0012819098 -0.04184159 0.06216767 0.038356252 0.081541196 0.076888695 0.03954602
0.006882745 0.072502494 -0.049454376 0.0074058203 0.022189224 -0.015813498 -0.0043567703 0.0067193983
-0.03475738 -0.032951005 -0.08694353 -0.024868935 0.030619264 0.023113944 -0.031941283 0.014590556
-0.08491753 0.007518498 -0.0629676 0.08449416 -0.014318929 -0.03550455 0.0601017 -0.034620434
-0.08863908 0.04333993 -0.013440864 0.043525368 0.013893895 -0.08537405 -0.0577192 -0.005459355
00000000: a0c4 87bd 5a9a 8d3d 222e a33c 49e0 d9bc
00000010: 7231 71bd 6fc2 93bd 93dd 163d 12df 173d
00000020: 1d63 413d 6080 803b 5e68 893d dc77 b53c
00000030: 1876 23bc d7c2 853d c392 a93d f235 eb3c
00000040: c91c 94bd 9133 8cbd e181 b03c bb2b bb3d
00000050: 55db 76bd 024a b2bd 554b 05bd 3a44 533d
00000060: b936 39bd ed14 703d ee47 373d fff1 82bc
00000070: da41 29bd e86c a63d da0b 27bd cf95 41bd
00000080: a030 80bc a038 62bd 03c3 42bd 309d 993b
00000090: 9210 d0bc 142d a1bc eae3 663d 6853 9b3d
000000a0: e979 a43d b92a 55bd 9a6c 66bd bd93 1ebd
000000b0: 935b bbbb d961 a0bd 6869 15bd 601c 8dbd
000000c0: d248 2c3d d456 7e3d b3ea 6d3d 251e a93d
000000d0: f037 96bd e0d1 acbc fd63 a33d a030 1f3b
000000e0: 9a4b 953d b248 babb 7a49 13bd d625 3d3d
000000f0: 17fa 523c 5303 f13b a891 653c 0aa2 84bd
00000100: f5cd 14bb 2ee5 2c3d c4e2 db3c 5a16 303d
00000110: c8a4 783c 75fa 453d 2c81 1abd 4cac a03d
00000120: e8bc aebd ca17 17bd 6f7a 053d 1b56 8f3d
00000130: d05a 9b3c e4d9 1c3d 0883 bd3c 95b9 a83d
00000140: 062a e93b e8e4 e9bb 1346 113d c75c 953c
00000150: b72a 8fbd 3c36 12bd c090 3dbd decc 0dbc
00000160: fd95 ca3c c105 a83a 1662 2bbd 87a3 7e3d
00000170: 721b 1d3d 12ff a63d d277 9d3d 02fb 213d
00000180: a688 e13b 307c 943d ac90 4abd 86ac f23b
00000190: 2dc6 b53c 4f8b 81bc 3dc3 8ebb 662e dc3b
000001a0: c15d 0ebd a2f7 06bd 730f b2bd f0b9 cbbc
000001b0: 40d5 fa3c 7459 bd3c ddd4 02bd 3a0d 6f3c
000001c0: 3ee9 adbd bc5d f63b 28f5 80bd 460b ad3d
000001d0: f199 6abc 386d 11bd 332d 763d 28ce 0dbd
000001e0: 6888 b5bd 3685 313d 1237 5cbc a847 323d
000001f0: 38a3 633c 97d8 aebd f86a 6cbd 64e4 b2bb

fc3.weight f4 [3, 128]
0.041730575 -0.07210539 -0.017195724 0.055834565 0.079674594 0.017090283 0.07458449 0.061115056
0.09150657 -0.024766855 0.04611107 -0.028584307 -0.036224794 -0.07177006 -0.08656306 0.068299584
-0.055993132 -0.08954783 0.058202796 0.09525101 0.028712653 -0.007014595 0.017756809 -0.009326512
0.030832307 -0.05323485 -0.05866813 0.03589125 -0.016368126 -0.044686794 -0.069693446 -0.073240675
-0.07673353 -0.05620155 0.08518441 0.01293309 0.012239979 -0.016982734 -0.06025986 -0.058751434
0.0032081327 -0.009311022 -0.019686349 0.04605741 0.07174213 -0.038012087 0.017418936 -0.00790893
0.065068096 0.04396084 0.092158206 0.019285148 0.08697285 0.019530825 -0.053048253 -0.011201441
0.053969562 0.0503366 -0.08312291 0.028298609 0.041263353 0.04558624 0.06538845 -0.07572552
0.07054757 -0.07258926 0.06797133 -0.0009248471 0.015837163 -0.03306393 -0.095892385 -0.09125928
-0.055946097 -0.01493936 -0.025081443 0.03973541 0.016043404 0.04504503 0.051466037 -0.056969427
0.052014563 0.058789365 -0.022534227 -0.06395139 -0.02314777 -0.061103124 0.0774427 -0.059455696
-0.07856328 -0.008997102 -0.083089985 0.06484 -0.08856385 -0.06840785 -0.03484289 -0.04819942
-0.02290882 -0.0012830942 -0.010752282 0.037583426 0.078093775 0.04563167 0.05457647 -0.095820665
-0.058346767 -0.044873673 -0.0751547 -0.07449843 0.08054266 0.048004128 0.060471095 0.08604853
-0.04029246 -0.075211994 0.09638455 -0.02419798 0.0134194335 0.021723703 0.08290452 0.06455014
0.07190031 -0.06909646 -0.060677465 -0.067616135 0.0038702935 -0.044598117 -0.013091378 -0.056991994
0.035311528 -0.07813224 -0.07731526 0.05568474 0.031031862 0.0072503537 0.0835876 -0.07022102
0.0021844062 0.017724752 0.032503027 0.086689815 0.038175546 -0.016725965 -0.027141452 -0.08185445
-0.026314052 0.038444933 0.022196567 -0.013081023 0.051752985 -0.07071885 -0.06484617 -0.015947824
-0.035552602 -0.0112658525 -0.049764026 0.060680624 -0.0049478984 0.07355284 -0.06747122 -0.002587676
-0.029201422 0.08381175 -0.07501652 -0.014856972 0.017789237 0.01881867 0.049067736 0.026004892
-0.07847908 0.05859505 0.03157703 0.06491453 -0.01537611 -0.08001021 0.08700339 0.01754668
-0.009441776 0.029715098 0.08345402 0.09146745 0.008682689 -0.046555713 -0.07668319 0.085733734
0.05305839 -0.021239415 -0.056297734 0.0799178 -0.04849481 -0.032340534 -0.031386476 -0.022983344
-0.06816766 -0.06767863 0.071079426 -0.07163142 -0.07153153 -0.06112124 0.044179182 -0.05653292
0.021378424 0.00096117705 -0.07634875 0.06926014 0.094837435 0.027161956 0.061523814 0.015892098
-0.055559956 0.045676008 -0.039091546 -0.06594941 0.031471163 -0.03610064 0.049507946 0.052812558
-0.0014733449 -0.04180932 -0.00046923012 -0.0075470363 0.036797047 -0.06288597 0.04735482 -0.038839247
0.08736742 0.007191061 0.053757615 -0.05027885 -0.0045351856 0.022723109 -0.061268225 0.08178717
0.06809915 0.064774826 0.009306595 -0.04687431 -0.047143843 -0.038 -0.07322823 0.026845539
0.029352538 0.05848635 -0.044220135 0.062168952 0.03299275 0.074730545 0.028818011 -0.0058281342
-0.04741317 0.0638305 -0.026231915 -0.02286443 -0.07934712 0.015886605 0.04963913 0.07086497
00000000: aeed 2a3d feab 93bd 0cde 8cbc c9b2 643d
00000010: 6f2c a33d ec00 8c3c c1bf 983d c853 7a3d
00000020: cc67 bb3d dce3 cabc f6de 3c3d a329 eabc
00000030: 7360 14bd 2efc 92bd f947 b1bd a7e0 8b3d
00000040: 0e59 65bd da64 b7bd 0e66 6e3d f612 c33d
00000050: cc36 eb3c b0da e5bb ba76 913c 3ace 18bc
00000060: 0994 fc3c c90c 5abd fe4d 70bd b402 133d
00000070: 7316 86bc 8009 37bd 70bb 8ebd 35ff 95bd
00000080: 7826 9dbd 9933 66bd 2a75 ae3d 50e5 533c
00000090: 318a 483c 601f 8bbc 0bd3 76bd 58a5 70bd
000000a0: 893f 523b 428d 18bc 4445 a1bc b2a6 3c3d
000000b0: 8aed 923d 90b2 1bbd 28b2 8e3c 7594 01bc
000000c0: 6c42 853d 4810 343d 71bd bc3d e3fb 9d3c
000000d0: d21e b23d 1cff 9f3c 2049 59bd 4086 37bc
000000e0: 300f 5d3d c02d 4e3d 583c aabd 7cd2 e73c
000000f0: c303 293d a3b8 3a3d 61ea 853d fb15 9bbd
00000100: 3f7b 903d aea9 94bd 8d34 8b3d 7071 72ba
00000110: f0bc 813c 0b6e 07bd 3a63 c4bd 25e6 babd
00000120: bc27 65bd 38c4 74bc 9977 cdbc 99c1 223d
00000130: 756d 833c 2381 383d 0dce 523d c658 69bd
00000140: 390d 553d 1ecd 703d b399 b8bc f2f8 82bd
00000150: 64a0 bdbc 4547 7abd 479a 9e3d d187 73bd
00000160: c9e5 a0bd 9568 13bc 152b aabd d5ca 843d
00000170: f760 b5bd 6a19 8cbd 6bb7 0ebd c16c 45bd
00000180: 47ab bbbc 7f2d a8ba 572a 30bc 14f1 193d
00000190: a1ef 9f3d 46e8 3a3d 948b 5f3d a03d c4bd
000001a0: 05fd 6ebd 75cd 37bd b5ea 99bd a292 98bd
000001b0: 8df3 a43d fa9f 443d 8ab0 773d 363a b03d
000001c0: b509 25bd bf08 9abd 4365 c53d d83a c6bc
000001d0: 2fdd 5b3c e8f5 b13c d8c9 a93d dd32 843d
000001e0: 7840 933d 7282 8dbd ef88 78bd 547a 8abd
000001f0: c0a4 7d3b 84ac 36bd 387d 56bc 7070 69bd
00000200: d2a2 103d cc03 a0bd 7757 9ebd af15 643d
00000210: 8836 fe3c 6094 ed3b fa2f ab3d 0ad0 8fbd
00000220: 4128 0f3b 8033 913c e521 053d 6e8a b13d
00000230: f65d 1c3d e404 89bc c057 debc 4ea3 a7bd
00000240: 9190 d7bc 6f78 1d3d 93d5 b53c c951 56bc
00000250: f0fa 533d 0bd5 90bd 12ce 84bd 03a5 82bc
00000260: 9b9f 11bd 6994 38bc 5dd5 4bbd 3f8c 783d
00000270: fb21 a2bb dfa2 963d 5a2e 8abd 0096 29bb
00000280: d237 efbc 7fa5 ab3d 43a2 99bd a86a 73bc
00000290: bcba 913c 9d29 9a3c 40fb 483d 3608 d53c
000002a0: a4b9 a0bd 5d01 703d ea56 013d e9f1 843d
000002b0: 14ec 7bbc 65dc a3bd d52e b23d 0ebe 8f3c
000002c0: aeb1 1abc 146d f33c f1e9 aa3d 4953 bb3d
000002d0: d641 0e3c 34b1 3ebd 140c 9dbd 2b95 af3d
000002e0: c153 593d 48fe adbc 7498 66bd f2ab a33d
000002f0: 7ea2 46bd 8277 04bd 1b8f 00bd 9147 bcbc
00000300: 7c9b 8bbd 189b 8abd 1792 913d 7eb3 92bd
00000310: 1f7f 92bd 445a 7abd 3bf5 343d 108f 67bd
00000320: ce21 af3c 80f7 7b3a bc5c 9cbd 43d8 8d3d
00000330: 213a c23d c082 de3c 6500 7c3d 2530 823c
00000340: d692 63bd c416 3b3d 751e 20bd 7c10 87bd
00000350: e8e7 003d 44de 13bd d8c8 4a3d fb51 583d
00000360: 401d c1ba 4040 2bbd 0003 f6b9 214d f7bb
00000370: 80b8 163d 5cca 80bd 21f7 413d e715 1fbd
00000380: b1ed b23d fea2 eb3b f230 5c3d 32f1 4dbd
00000390: e59b 94bb d025 ba3c 64f4 7abd 0880 a73d
000003a0: 9177 8b3d aaa8 843d b07a 183c 47ff 3fbd
000003b0: e719 41bd e3a5 1bbd aff8 95bd 2deb db3c
000003c0: bc74 f03c 628f 6f3d 2c20 35bd dfa4 7e3d
000003d0: 6823 073d 540c 993d c013 ec3c eff9 bebb
000003e0: 5034 42bd 91b9 823d 50e4 d6bc 2f4e bbbc
000003f0: be80 a2bd a024 823c 6652 4b3d a721 913d

fc3.bias f4 [3]
0.039142396 -0.077841975 -0.047440965
00000000: c753 203d 9d6b 9fbd 7551 42bd
