dqn_agent_fixed_grid.pth (torch, 76913 bytes, 6 tensors)

fc1.weight f4 [128, 11]
-0.12244048 0.2303597 -0.2420968 0.22389777 0.2027864 -0.3794778 -0.027701499 0.23114079
0.11128665 -0.13417439 0.061690986 0.05701972 -0.063011475 -0.067966044 0.35506177 0.036552068
0.36308864 0.34558594 -0.11287598 -0.16961968 0.22154929 0.28338838 -0.0030656676 -0.086808294
0.046940774 -0.039192498 -0.06186827 -0.31437865 0.111543424 -0.068412006 0.2843683 -0.073938556
0.163953 -0.13777485 0.21054304 -0.13580257 0.2759034 0.3568321 0.2614109 0.21718015
0.24523546 0.27709842 0.33704412 -0.15626922 0.06577903 0.27367315 0.059291027 -0.14762603
0.12733133 0.199932 0.20159097 0.23704928 0.05293675 0.38423362 0.1389687 0.12215924
-0.20415947 0.011861473 0.26740915 -0.018144757 0.04994178 0.0017051995 -0.18594235 -0.16749187
-0.20004834 0.26625115 -0.06763454 -0.2520938 0.2735257 -0.235126 0.14992705 -0.21568745
0.10172653 -0.27797693 0.20212227 -0.030471295 -0.25220674 0.1288473 -0.030724613 0.18506764
-0.118185945 0.1922456 0.29637364 0.12636109 -0.12780213 -0.21957238 0.25529343 0.28294155
0.38905856 0.42280817 0.20026618 0.33103505 0.08544162 0.013310579 0.21984252 0.034084253
0.25641885 0.32566354 -0.09228531 0.097810864 -0.05206719 -0.16627954 0.08308948 0.21302024
-0.21656694 0.14703932 -0.017457638 0.23022257 -0.23989977 0.039504547 -0.07787347 0.18293346
-0.14656319 0.39312983 0.19597636 -0.10993593 0.15939876 0.12997779 0.081717886 0.28596088
0.101224855 0.14093162 0.015168629 0.3051551 0.19940731 -0.16861095 -0.359029 0.18883492
0.03311957 -0.05502778 -0.000657973 0.235265 0.04289696 0.25045544 0.09863437 0.110623784
0.17257178 0.39670634 -0.019466624 0.08844476 -0.026086308 0.19798547 -0.07588032 -0.2083774
-0.13566007 -0.29920125 0.029260695 -0.018788785 0.07082781 -0.1240799 -0.17161667 0.12735325
0.051331937 -0.19961423 0.31953508 0.10025673 0.3218283 0.33881274 -0.12549788 -0.084731154
-0.19005175 0.29163647 -0.04644635 -0.25682572 -0.14687364 0.08316192 0.1703645 0.07038797
0.31729496 -0.10894436 0.2879959 0.2556142 -0.012806391 0.013854095 0.34180576 -0.068166934
-0.15984087 0.0742264 0.09323237 -0.166927 -0.28064245 0.15721428 -0.21254282 0.28093052
-0.27159014 0.23425543 0.16209637 0.25363737 0.21995278 -0.1611962 -0.0129274875 -0.08900351
0.0933638 0.07360699 0.09177056 0.1843235 0.14425778 0.27019987 0.20927532 -0.16521737
0.15858205 0.2193681 0.26652044 0.26239574 -0.030307516 0.18680917 0.057397243 0.004876516
-0.17406449 0.0816444 -0.26951125 0.12142236 0.039305896 0.06976118 -0.42820722 0.28459165
-0.13085438 -0.09829293 0.077421166 0.19142576 0.23735572 -0.2458874 -0.2215132 -0.2767003
-0.15258914 -0.26236492 0.03157574 -0.08590343 0.014730608 0.19554237 0.22892345 -0.17928082
0.08137959 -0.20210075 0.13721311 0.2044375 -0.17416675 0.2182278 -0.16178535 -0.095419705
-0.113389954 -0.0247657 -0.12349497 -0.14991008 -0.015036249 -0.20245437 0.06274809 0.32765242
-0.10585879 -0.142961 0.31515384 0.2778608 -0.07327572 -0.24589889 0.3235941 0.033448584
00000000: 13c2 fabd 6ae3 6b3e 39e8 77be 7545 653e
00000010: 3da7 4f3e ea4a c2be 41ee e2bc 2cb0 6c3e
00000020: 41ea e33d 0365 09be b0af 7c3d 838d 693d
00000030: 290c 81bd c831 8bbd a8ca b53e 9fb7 153d
00000040: c1e6 b93e a4f0 b03e 862b e7bd c8b0 2dbe
00000050: d1dd 623e 4818 913e 5ee9 48bb 8cc8 b1bd
00000060: f844 403d 5088 20bd 9569 7dbd 3df6 a0be
00000070: e170 e43d 981b 8cbd b998 913e 196d 97bd
00000080: 4ce3 273e da14 0dbe 9898 573e d40f 0bbe
00000090: 3643 8d3e b2b2 b63e a6d7 853e 7964 5e3e
000000a0: 011f 7b3e d8df 8d3e 0c91 ac3e 0a05 20be
000000b0: 28b7 863d e31e 8c3e 26db 723d 472b 17be
000000c0: 2563 023e f9ba 4c3e dd6d 4e3e 0cbd 723e
000000d0: 35d4 583d 45ba c43e d04d 0e3e a02e fa3d
000000e0: 2e0f 51be a056 423c dae9 883e 50a4 94bc
000000f0: c08f 4c3d 0081 df3a ac67 3ebe fd82 2bbe
00000100: 79d9 4cbe 1252 883e fa83 8abd 7012 81be
00000110: 900b 8c3e dfc4 70be 7a86 193e 2cdd 5cbe
00000120: 0056 d03d fe52 8ebe 24f9 4e3e f09e f9bc
00000130: 3e21 81be 8cf0 033e 2fb2 fbbc 5f82 3d3e
00000140: 790b f2bd 08dc 443e 49be 973e cd64 013e
00000150: 90de 02be 95d7 60be d2b5 823e b7dd 903e
00000160: af32 c73e 507a d83e 9412 4d3e 6d7d a93e
00000170: 04fc ae3d 9d14 5a3c 661e 613e ee9b 0b3d
00000180: 5549 833e 5fbd a63e 1500 bdbd 1051 c83d
00000190: 6844 55bd 2f45 2abe d12a aa3d fa21 5a3e
000001a0: b9c3 5dbe 7a91 163e 5203 8fbc 77bf 6b3e
000001b0: 49a8 75be 85cf 213d 207c 9fbd e952 3b3e
000001c0: a914 16be 5048 c93e 07ae 483e 1726 e1bd
000001d0: 6e39 233e e618 053e b55b a73d 7769 923e
000001e0: fa4e cf3d 6150 103e d785 783c 4a3d 9c3e
000001f0: 6e31 4c3e 59a8 2cbe a6d2 b7be f15d 413e
00000200: 63a8 073d cf64 61bd d27b 2cba 4fe9 703e
00000210: b9b4 2f3d b23b 803e d100 ca3d b98e e23d
00000220: a8b6 303e 181d cb3e 7878 9fbc 8722 b53d
00000230: f4b2 d5bc b4bc 4a3e 2467 9bbd e360 55be
00000240: 79ea 0abe e830 99be 20b4 ef3c f0ea 99bc
00000250: 2c0e 913d 9a1d febd 48bc 2fbe e468 023e
00000260: 7041 523d ac67 4cbe 1a9a a33e 6753 cd3d
00000270: aec6 a43e dd78 ad3e 8482 00be 8787 adbd
00000280: ed9c 42be 6051 953e 873e 3ebd a97e 83be
00000290: 0b66 16be cc50 aa3d 0874 2e3e 9127 903d
000002a0: 7c74 a23e 381e dfbd 3374 933e dddf 823e
000002b0: e6d1 51bc 49fc 623c 2a01 af3e 1b9b 8bbd
000002c0: 53ad 23be 0304 983d 9df0 be3d e9ee 2abe
000002d0: 5eb0 8fbe c8fc 203e d3a4 59be 20d6 8f3e
000002e0: dd0d 8bbe a8e0 6f3e 97fc 253e c2dc 813e
000002f0: 4d3b 613e 9e10 25be d0cd 53bc 7947 b6bd
00000300: 8535 bf3d 43bf 963d 34f2 bb3d 4dbf 3c3e
00000310: 50b8 133e a357 8a3e 454c 563e be2e 29be
00000320: 5563 223e 08a2 603e 5e75 883e bc58 863e
00000330: 7847 f8bc e74a 3f3e 5f19 6b3d 2ecb 9f3b
00000340: f63d 32be 2e35 a73d 61fd 89be 49ac f83d
00000350: 38ff 203d f3de 8e3d fa3d dbbe ffb5 913e
00000360: b1fe 05be ce4d c9bd fd8e 9e3d 1d05 443e
00000370: 610d 733e e8c9 7bbe 5bd4 62be a9ab 8dbe
00000380: 5440 1cbe b254 86be 9055 013d 23ee afbd
00000390: a658 713c 423c 483e e96a 6a3e 6495 37be
000003a0: 58aa a63d 80f3 4ebe 9881 0c3e 1058 513e
000003b0: c558 32be 1c77 5f3e 0fab 25be 686b c3bd
000003c0: fe38 e8bd 70e1 cabc eeea fcbd 0782 19be
000003d0: 995a 76bc 3350 4fbe 1282 803d 0fc2 a73e
000003e0: 7ecc d8bd 5e64 12be d85b a13e c543 8e3e
000003f0: 9511 96bd ebcc 7bbe 20ae a53e 6201 093d

fc1.bias f4 [128]
0.06784913 0.31042424 -0.114671625 -0.23957832 0.09644952 -0.1968763 -0.2157897 -0.14230774
0.105753966 -0.0012240629 0.3807854 -0.18028362 0.3162524 -0.17142414 -0.08047079 0.1936333
-0.22925444 0.24918282 0.32831904 0.028958378 0.07434904 -0.08671866 0.14331807 0.29330298
0.009719023 -0.11408275 -0.06313425 0.17798857 -0.062043317 -0.00024676323 0.24708228 0.07845707
-0.06263625 -0.20031711 0.31073 -0.026433416 0.11555486 -0.07221734 -0.07479071 0.15303326
-0.108704075 -0.025748903 0.093458354 -0.22674699 0.23420866 0.19922918 0.24604723 0.19170195
0.121240936 0.045011073 -0.023716748 -0.09408805 -0.16905658 0.14434138 -0.13436459 0.033996653
-0.23978113 0.0066238665 0.27440324 -0.29913092 0.30148372 -0.12641846 0.13535595 -0.23291759
-0.09686553 0.03127702 -0.1175482 0.2486253 -0.20030604 -0.08188844 0.05126694 -0.09224026
-0.2503598 -0.22628248 -0.29759416 -0.055687994 0.1147506 -0.09460777 0.26251066 -0.09918465
0.29943192 0.07327081 -0.19944914 -0.30009222 0.35675287 0.01924031 -0.0722464 -0.289501
0.18771586 -0.09964072 -0.020821927 0.3252379 -0.18480428 -0.16818918 0.05042651 0.06600539
-0.10895476 0.0012536837 0.13479088 0.28233105 -0.25839326 0.19696507 -0.065057606 0.35020715
-0.20504919 0.08806443 0.02839178 0.06781943 0.14634523 0.008891717 -0.09308045 0.20714068
-0.062304728 -0.1880483 0.18898334 0.10336363 -0.17246145 0.18123062 0.027807985 -0.18448904
0.122673534 0.015733007 0.23113209 0.25452912 0.18202788 0.33744806 0.26945123 0.12646383
00000000: 7cf4 8a3d edef 9e3e f5d8 eabd 0554 75be
00000010: 5387 c53d f199 49be faf7 5cbe 1fb9 11be
00000020: 8995 d83d bc70 a0ba 4ef6 c23e 459c 38be
00000030: d6eb a13e cf89 2fbe dfcd a4bd cf47 463e
00000040: adc1 6abe c829 7f3e 6f19 a83e 1f3a ed3c
00000050: 4f44 983d 8e99 b1bd f9c1 123e cf2b 963e
00000060: 893c 1f3c 38a4 e9bd 884c 81bd a342 363e
00000070: 2221 7ebd 0060 81b9 2303 7d3e 1aae a03d
00000080: 6f47 80bd ee1f 4dbe 0118 9f3e e48a d8bc
00000090: 07a8 ec3d afe6 93bd df2b 99bd c0b4 1c3e
000000a0: 3ea0 debd 5def d2bc 1867 bf3d 5d30 68be
000000b0: 65d4 6f3e bc02 4c3e cef3 7b3e 844d 443e
000000c0: 2b4d f83d 885d 383d a049 c2bc 3cb1 c0bd
000000d0: 2b1d 2dbe 3ace 133e df96 09be 1340 0b3d
000000e0: 2f89 75be 050d d93b 957e 8c3e b027 99be
000000f0: 135c 9a3e d773 01be c09a 0a3e f381 6ebe
00000100: 6f61 c6bd 551c 003d 1cbd f0bd a197 7e3e
00000110: 071d 4dbe 20b5 a7bd 48fd 513d 76e8 bcbd
00000120: 292f 80be 98b6 67be 435e 98be 1819 64bd
00000130: 5d02 eb3d b8c1 c1bd cc67 863e 5221 cbbd
00000140: 244f 993e 020f 963d 653c 4cbe b0a5 99be
00000150: 50a8 b63e db9d 9d3c ecf5 93bd 7a39 94be
00000160: 9638 403e 6f10 ccbd bf92 aabc 9585 a63e
00000170: 553d 3dbe c939 2cbe 078c 4e3d d52d 873d
00000180: ac23 dfbd a552 a43a 9f06 0a3e b28d 903e
00000190: 1f4c 84be 36b1 493e ec3c 85bd 5a4e b33e
000001a0: 6af8 51be 205b b43d e195 e83c eae4 8a3d
000001b0: 86db 153e 90ae 113c f7a0 bebd b01c 543e
000001c0: 3e33 7fbd bc8f 40be d984 413e 50b0 d33d
000001d0: bc99 30be 8594 393e 92cd e33c b2ea 3cbe
000001e0: 433c fb3d 82e2 803c e4ad 6c3e a451 823e
000001f0: 8465 3a3e fec5 ac3e 83f5 893e bc7f 013e

fc2.weight f4 [128, 128]
-0.0481374 -0.077778585 -0.019478165 -0.030530144 0.05004985 -0.00833106 -0.039441917 0.01746653
-0.054585624 -0.037035845 0.04035615 -0.067542545 -0.07651314 -0.02389466 0.001217559 -0.05018051
-0.023752838 -0.080181986 0.078762315 0.029087111 0.018488012 0.0855213 0.059122868 0.07743751
0.0750963 -0.003402166 -0.043072708 0.021955304 0.043140702 -0.07552561 0.018549882 0.0782991
-0.027263183 -0.013103254 -0.046911158 0.05204285 0.058642395 -0.005538717 -0.06988979 0.01920063
-0.03845259 -0.016950026 -0.06321294 0.08668525 -0.051253717 0.023154877 0.021431774 -0.005136855
0.015008353 -0.067952655 -0.009513743 -0.028557725 0.018625006 0.040543355 -0.010997251 0.0021598786
-0.057216905 0.08724042 -0.07485469 0.014077365 -0.03312128 0.022522464 -0.06518748 -0.059163682
-0.051574696 -0.08765886 0.026630223 0.008040905 0.034575596 0.03500676 0.0060844794 -0.060754787
0.051671945 -0.0047487766 -0.05060242 -0.08588755 -0.081124716 -0.0876652 -0.0147423 0.06543567
0.02725473 -0.014877416 0.03177941 0.08154295 0.07492257 -0.0013528615 -0.03335061 0.035681933
0.042159937 0.00032173097 0.013853721 -0.032983597 -0.07017951 0.055628248 -0.049760655 0.06476729
-0.045065824 -0.04650242 -0.027873702 -0.063820444 -0.062129408 0.07672084 -0.033349883 -0.047090113
-0.054182712 0.066790126 -0.05981268 0.021925643 -0.03785201 -0.044180706 0.040055342 -0.07619655
0.03531014 -0.051164586 0.03342016 0.018557817 -0.020869032 -0.05631944 0.025848694 0.021486707
-0.020311616 -0.08547696 0.03013251 -0.07744062 0.0020886809 -0.030669723 -0.06683303 -0.058170363
-0.083807096 -0.067545384 0.07116868 -0.06560944 -0.009974673 0.023260757 0.041552417 -0.008775793
-0.043534722 0.065962024 0.085046686 0.031806454 0.048958935 -0.02545172 -0.029133536 0.06292609
0.075864024 -0.055836577 -0.08124948 0.07624089 0.02842138 -0.082533434 0.005436972 -0.001031585
0.042481057 0.03880737 0.016695835 -0.08004673 0.052642025 -0.02648845 -0.03113006 0.009485148
0.06378665 0.017616004 -0.047609046 -0.033221092 0.016509183 0.008616976 -0.02321358 -0.046303116
0.014957987 0.08076783 -0.08378551 -0.048472196 -0.05363417 0.0786792 -0.025303163 0.08542531
-0.05530662 -0.03433775 0.01855214 0.070664756 -0.027370099 -0.07805826 -0.0024469942 -0.083246164
0.0050066262 0.0655768 -0.02737913 0.010800518 0.04496797 -0.049400322 -0.063303374 -0.026900899
-0.046351563 -0.069253474 -0.07675604 0.028562643 0.016094588 -0.052723695 -0.04944983 -0.016446471
-0.010968119 -0.014548913 -0.026346259 -0.07745347 -0.046959195 -0.07286119 0.005611725 0.0014261305
0.056364574 0.045440517 -0.06079649 -0.06538439 0.019859478 -0.06277929 -0.073994875 0.014176831
-0.04509778 0.018852115 0.04635141 -0.018626526 -0.05591612 0.08564039 0.060936175 -0.04982931
-0.07616158 -0.030716244 -0.058023892 0.019229867 0.0045692697 0.035265826 -0.010603242 -0.038051207
-0.07972441 -0.019299641 -0.018883012 -0.08093897 0.06501887 0.07581008 0.009936318 -0.03653333
0.05444602 0.018399417 0.07489132 0.073950075 0.08158813 0.03202694 -0.040579006 -0.042714145
0.07782414 0.06614935 -0.03117479 0.034061447 0.013725512 0.050423898 0.08105678 0.0063009635
00000000: b92b 45bd 614a 9fbd ac90 9fbc 5a1a fabc
00000010: 1201 4d3d 007f 08bc d98d 21bd f815 8f3c
00000020: 2d95 5fbd e6b2 17bd 7e4c 253d bf53 8abd
00000030: ecb2 9cbd bcbe c3bc 8096 9f3a 148a 4dbd
00000040: 5095 c2bc 7436 a4bd 234e a13d 1848 ee3c
00000050: 2c74 973c cb25 af3d d22a 723d 8f97 9e3d
00000060: 17cc 993d e0f6 5ebb 026d 30bd 9cdb b33c
00000070: 4eb4 303d 2cad 9abd ecf5 973c 475b a03d
00000080: 0a57 dfbc 08af 56bc ea25 40bd e22a 553d
00000090: 0233 703d 207e b5bb 6122 8fbd a44a 9d3c
000000a0: 7780 1dbd c8da 8abc c975 81bd 0988 b13d
000000b0: 6bef 51bd 4caf bd3c b091 af3c 1053 a8bb
000000c0: 98e5 753c c32a 8bbd 88df 1bbc e4f1 e9bc
000000d0: 7893 983c ca10 263d d02d 34bc c08c 0d3b
000000e0: 465c 6abd 1bab b23d 6a4d 99bd c0a4 663c
000000f0: 2eaa 07bd 0881 b83c 0381 85bd 9e55 72bd
00000100: fd3f 53bd 7d86 b3bd a027 da3c 00be 033c
00000110: 249f 0d3d 4063 0f3d 5060 c73b 03da 78bd
00000120: f6a5 533d a09b 9bbb 7c44 4fbd d0e5 afbd
00000130: b724 a6bd d089 b3bd b089 71bc 2303 863d
00000140: 5045 df3c 68c0 73bc 202b 023d fdff a63d
00000150: 0171 993d 8052 b1ba a69a 08bd 3827 123d
00000160: e6af 2c3d 00ae a839 b8fa 623c cf19 07bd
00000170: 46ba 8fbd 72da 633d d4d1 4bbd b7a4 843d
00000180: f196 38bd 5279 3ebd 6457 e4bc 4bb4 82bd
00000190: 687b 7ebd d11f 9d3d e399 08bd 90e1 40bd
000001a0: b1ee 5dbd 43c9 883d 24fe 74bd 689d b33c
000001b0: b60a 1bbd d4f6 34bd 1211 243d f00c 9cbd
000001c0: 5ea1 103d f591 51bd 94e3 083d 9006 983c
000001d0: 88f5 aabc 37af 66bd a4c0 d33c e404 b03c
000001e0: 8c64 a6bc 8b0e afbd 74d8 f63c 3099 9ebd
000001f0: 40e2 083b 123f fbbc c1df 88bd 0c44 6ebd
00000200: 0ea3 abbd 3c55 8abd e3c0 913d 3e5e 86bd
00000210: d06c 23bc 588d be3c de32 2a3d 58c8 0fbc
00000220: 7751 32bd 1917 873d f52c ae3d 7c47 023d
00000230: 2a89 483d 2080 d0bc 74a9 eebc 65df 803d
00000240: 995e 9b3d e5b4 64bd 2166 a6bd 2f24 9c3d
00000250: f4d3 e83c 4a07 a9bd a028 b23b 4036 87ba
00000260: 9e00 2e3d 7af4 1e3d b4c5 883c 8aef a3bd
00000270: 2a9f 573d 4efe d8bc 7804 ffbc 9867 1b3c
00000280: 93a2 823d 704f 903c b401 43bd d712 08bd
00000290: 443e 873c 382e 0d3c 682a bebc 56a8 3dbd
000002a0: 5812 753c 9b69 a53d bd97 abbd c88a 46bd
000002b0: 81af 5bbd 8f22 a13d 9448 cfbc 77f3 ae3d
000002c0: 3289 62bd bea5 0cbd a8fa 973c afb8 903d
000002d0: 4237 e0bc 02dd 9fbd c05d 20bb f77c aabd
000002e0: a00e a43b 214d 863d 324a e0bc a8f4 303c
000002f0: 5630 383d fe57 4abd 33a5 81bd 465f dcbc
00000300: 23db 3dbd c4d4 8dbd 4532 9dbd 34fc e93c
00000310: ccd8 833c cdf4 57bd e88b 4abd c0ba 86bc
00000320: a0b3 33bc 905e 6ebc 1cd4 d7bc ed9f 9ebd
00000330: 4958 40bd 3f38 95bd 90e2 b73b 00ed ba3a
00000340: 8ade 663d d61f 3a3d be05 79bd 40e8 85bd
00000350: 58b0 a23c 6e92 80bd a08a 97bd f045 683c
00000360: 73b8 38bd c06f 9a3c fada 3d3d a896 98bc
00000370: 4d08 65bd 3b64 af3d 3698 793d d219 4cbd
00000380: 9afa 9bbd a2a0 fbbc 76aa 6dbd f487 9d3c
00000390: d0b9 953b e672 103d 38b9 2dbc 95db 1bbd
000003a0: 8d46 a3bd 481a 9ebc 8cb0 9abc 55c3 a5bd
000003b0: 9d28 853d 5142 9b3d f0cb 223c f9a3 15bd
000003c0: ca02 5f3d 60ba 963c 9f60 993d 2373 973d
000003d0: ad17 a73d ae2e 033d 2c36 26bd 07f5 2ebd
000003e0: 4362 9f3d 4f79 873d 4662 ffbc 0484 0b3d
000003f0: f8e0 603c 4a89 4e3d 1901 a63d 5078 ce3b

fc2.bias f4 [128]
0.060959153 -0.060306385 0.036007453 0.017274404 -0.00047525018 -0.015038918 0.110553145 -0.0060332543
0.13522075 -0.08527027 0.07970719 -0.04412522 -0.08321958 0.06627722 0.081671685 0.07938485
-0.08047768 0.064736 -0.04695017 -0.0055754515 0.007634899 -0.034132764 0.01563572 -0.05343566
-0.0026041458 0.09626507 0.01986976 0.08017245 -0.0783702 0.07206821 -0.036403205 0.069436885
-0.06310623 -0.0071363864 0.097591415 0.05515363 -0.009750911 0.086414985 0.04984075 0.0040521473
0.13824698 0.0038913116 0.15635611 0.068762764 0.09800544 -0.059352245 0.09951295 -0.012659132
0.002576648 0.13870127 0.121006995 -0.05974772 -0.010428987 0.07124788 -0.001311781 0.042285632
0.058991775 -0.021087466 0.0732752 -0.042505298 0.15045737 0.020236919 0.055392355 0.041646697
0.048979294 0.053503357 0.061940305 -0.08398319 0.023835558 0.1326822 -0.021120738 0.058979105
-0.066610575 -0.048737943 0.058123067 0.055588126 0.056690015 0.09089665 0.07971092 0.024384111
0.008819626 0.10830919 -0.075387865 0.016209375 -0.037045434 0.08835187 0.07176889 0.020046212
0.04250699 0.09653033 0.02351984 -0.029798508 0.06965371 0.05019173 -0.03229675 -0.05390758
-0.036383554 0.013323934 0.10163649 0.060081154 0.1137456 -0.029243466 0.03178242 0.09658138
-0.01665725 -0.086220585 -0.08528254 0.01981418 0.05422497 -0.028146466 0.0870856 0.090878904
-0.059049584 0.1040171 -0.008442563 0.13895142 -0.025130652 0.058444772 -0.07575402 0.08670745
0.08342009 0.08007486 0.08855153 -0.016974334 0.0025553508 0.0061499747 0.014866759 -0.011710579
00000000: 4eb0 793d d403 77bd 8d7c 133d 0d83 8d3c
00000010: 002b f9b9 cb65 76bc b069 e23d 9bb2 c5bb
00000020: 4f77 0a3e 2ea2 aebd 863d a33d a6bc 34bd
00000030: 076f aabd 5abc 873d 7c43 a73d 8694 a23d
00000040: 7bd1 a4bd 4f94 843d d24e 40bd 47b2 b6bb
00000050: 2d2e fa3b ccce 0bbd 7b16 803c 5adf 5abd
00000060: 51aa 2abb 9f26 c53d e8c5 a23c 7431 a43d
00000070: 8e80 a0bd 7f98 933d 871b 15bd ed34 8e3d
00000080: d73d 81bd 59d8 e9bb 02de c73d c6e8 613d
00000090: 49c2 1fbc 57fa b03d d025 4c3d e0c7 843b
000000a0: 9e90 0d3e 6005 7f3b d11b 203e 7ed3 8c3d
000000b0: 13b7 c83d 571b 73bd 72cd cb3d 3f68 4fbc
000000c0: fbdc 283b b507 0e3e 84d2 f73d 06ba 74bd
000000d0: 58de 2abc 69ea 913d 11f0 abba b333 2d3d
000000e0: 5ca1 713d 9fbf acbc 4f11 963d 091a 2ebd
000000f0: 7f11 1a3e e5c7 a53c 18e3 623d ba95 2a3d
00000100: 839e 483d 5626 5b3d 1eb5 7d3d 61ff abbd
00000110: ca42 c33c d8dd 073e 6605 adbc 1394 713d
00000120: 206b 88bd 70a1 47bd 7412 6e3d 60b0 633d
00000130: ca33 683d 0628 ba3d 7b3f a33d 30c1 c73c
00000140: 3180 103c 35d1 dd3d f464 9abd 86c9 843c
00000150: f4bc 17bd d3f1 b43d 91fb 923d f437 a43c
00000160: cf1b 2e3d b2b1 c53d aeac c03c 001c f4bc
00000170: 9ba6 8e3d d895 4d3d 9949 04bd 32ce 5cbd
00000180: ec06 15bd a14c 5a3c cb26 d03d a817 763d
00000190: 74f3 e83d fe8f efbc 482e 023d 75cc c53d
000001a0: c974 88bc 6b94 b0bd 9da8 aebd 5951 a23c
000001b0: 011b 5e3d 6b93 e6bc ef59 b23d b81e ba3d
000001c0: fadd 71bd eb06 d53d ad52 0abc 4849 0e3e
000001d0: ccde cdbc c963 6f3d ec24 9bbd ad93 b13d
000001e0: 27d8 aa3d 4afe a33d 815a b53d c20d 8bbc
000001f0: ac77 273b ba85 c93b b593 733c badd 3fbc

fc3.weight f4 [3, 128]
-0.06003003 -0.020447724 0.2019988 -0.020642629 -0.07638842 0.0037245147 -0.1260943 0.0575961
0.13062012 0.022557572 0.152209 0.00014456894 -0.07132906 0.10939838 -0.04404707 0.13203819
-0.033319328 0.004403198 0.006516571 -0.11326718 -0.054190394 -0.077801324 0.08938872 -0.016533248
0.008111494 0.06872154 0.016584352 -0.12203035 0.018447854 0.16857088 -0.13897619 -0.041136395
-0.005192302 0.049797356 0.09474698 0.009872357 -0.16906244 -0.05460654 0.1815791 -0.059363656
0.072306156 0.06941896 0.13765843 -0.1320878 -0.18970802 0.06748951 -0.16900972 0.16762346
0.06605563 0.1455119 0.18259197 -0.037738066 0.045550235 0.009291001 -0.045480944 0.16422771
0.059582986 -0.11412503 0.06569532 0.03137306 0.119476974 -0.14791349 0.13744813 0.047917552
-0.049295295 0.07292526 0.14552179 -0.07027238 -0.13141243 0.07004909 -0.048299115 -0.006973357
0.021858618 0.048712347 0.09356146 0.06577337 -0.014072083 -0.1434688 -0.14163007 -0.17144357
-0.02806108 0.075598545 -0.07067211 -0.060684208 0.012465216 0.17470297 0.044552535 0.066055484
0.13999382 0.05276315 0.12942095 0.10568129 -0.040440105 0.13591762 -0.027108442 -0.1332144
0.062774986 0.04722312 0.08987048 0.1810734 -0.088819526 0.06794519 0.056264937 0.18289942
0.054201435 -0.026659664 0.033598885 -0.11282275 -0.07091957 -0.0365377 0.19008109 0.14966948
0.01632747 -0.08135744 0.019003885 0.051216573 0.003474403 -0.12513469 0.027259402 -0.07578141
0.15949608 0.14554341 0.07706987 0.0020067105 -0.055880535 -0.07480516 -0.09504082 -0.08838111
0.02436284 -0.06384062 0.15114047 0.005076252 -0.038952168 -0.18196778 -0.13665228 0.12561534
0.17683154 -0.06449917 0.09171766 -0.15787634 0.0064984187 0.1354537 -0.14920665 0.14993046
0.030123502 -0.14294778 0.022492463 -0.16330175 0.086285666 -0.11336011 0.18072274 0.021279238
-0.18806753 0.16493139 0.019797996 -0.1562836 -0.0801847 0.18232536 -0.21698266 -0.190711
-0.0024236366 -0.08570872 0.1746814 -0.14858109 -0.13237293 -0.19227125 0.14487167 -0.05946977
0.14337939 -0.030939095 0.10281701 -0.16610557 -0.16303423 -0.013489656 -0.101905115 0.16965204
0.09157455 0.12707792 0.1719424 -0.0024563 -0.07935539 -0.03888056 -0.061107397 0.17325969
0.06371378 -0.18637192 0.12554549 -0.025201246 0.14701132 -0.1285236 0.18853353 -0.0071690828
-0.15816952 0.022278726 0.18095957 -0.06311768 -0.098704174 0.18513766 -0.19518884 -0.14941125
-0.015382491 0.1367556 0.14229801 0.08200487 -0.07084173 -0.11638054 -0.17432043 -0.17374443
-0.19585644 0.1673737 0.08073606 -0.18738498 -0.07770777 0.117161006 0.16705501 0.07967631
0.1599209 0.1623426 0.12910701 -0.09366688 -0.1725712 0.1958638 0.08803523 -0.08604721
0.18655029 0.14834757 0.19974248 0.11289247 -0.18514493 0.08043576 0.117798805 0.14395867
0.13558982 -0.08423696 -0.037976976 -0.14955303 -0.13979536 -0.17117667 0.18120325 0.13152319
-0.06157548 -0.17931665 0.13380794 0.14515965 -0.11661447 -0.12631755 0.04097254 -0.13833044
0.12705296 0.13626838 0.13544507 -0.19371176 -0.1933651 -0.143373 -0.14903083 -0.13326085
00000000: 0ce2 75bd fc81 a7bc c6d8 4e3e bb1a a9bc
00000010: 8871 9cbd fd16 743b dd1e 01be e3e9 6b3d
00000020: 48c1 053e a8ca b83c addc 1b3e 6e97 1739
00000030: f814 92bd 420c e03d b36a 34bd 0535 073e
00000040: d979 08bd b448 903b f688 d53b a0f8 e7bd
00000050: bff6 5dbd 4d56 9fbd 6f11 b73d bc70 87bc
00000060: 12e6 043c e1bd 8c3d e8db 873c 0ceb f9bd
00000070: f41f 973c d89d 2c3e c64f 0ebe a37e 28bd
00000080: 3024 aabb 50f8 4b3d b40a c23d abbf 213c
00000090: b41e 2dbe 1bab 5fbd dfef 393e 4e27 73bd
000000a0: 4015 943d 872b 8e3d 55f6 0c3e 0642 07be
000000b0: d242 42be f137 8a3d e210 2dbe 7ca5 2b3e
000000c0: 2d48 873d 1201 153e 64f9 3a3e 3b93 1abd
000000d0: e292 3a3d 4839 183c 3a4a 3abd 4f2b 283e
000000e0: 4a0d 743d 62ba e9bd 458b 863d 0a81 003d
000000f0: 58b0 f43d a276 17be 34bf 0c3e 3245 443d
00000100: dde9 49bd d759 953d aa03 153e f7ea 8fbd
00000110: fb90 06be e675 8f3d 4bd5 45bd c280 e4bb
00000120: d810 b33c 9986 473d 279d bf3d 30b4 863d
00000130: 988e 66bc 7ce9 12be 7907 11be e78e 2fbe
00000140: 5ae0 e5bc 69d3 9a3d 8abc 90bd 0190 78bd
00000150: e83a 4c3c 56e5 323e b87c 363d 1948 873d
00000160: 8a5a 0f3e 2c1e 583d ed86 043e 6f6f d83d
00000170: 86a4 25bd fd2d 0b3e 8612 debc 5b69 08be
00000180: 2c90 803d 086d 413d 040e b83d 4e6b 393e
00000190: 03e7 b5bd d926 8b3d 1076 663d fc49 3b3e
000001a0: 5302 5e3d 5e65 dabc fc9e 093d 9d0f e7bd
000001b0: 483e 91bd 8ea8 15bd 9ea4 423e f542 193e
000001c0: 30c1 853c bb9e a6bd 09ae 9b3c 78c8 513d
000001d0: cfb2 633b 4f23 00be 1c4f df3c 4933 9bbd
000001e0: f152 233e 5509 153e cfd6 9d3d 0483 033b
000001f0: fde2 64bd 7333 99bd c3a4 c2bd 2801 b5bd
00000200: 9494 c73c dfbe 82bd 91c4 1a3e b056 a63b
00000210: 4f8c 1fbd c355 3abe 93ee 0bbe 4fa1 003e
00000220: 5413 353e 2418 84bd 78d6 bb3d 56aa 21be
00000230: b0f0 d43b 60b4 0a3e a1c9 18be 5f87 193e
00000240: 90c5 f63c e760 12be 1d42 b83c 9338 27be
00000250: 8ab6 b03d 5829 e8bd 620f 393e cc51 ae3c
00000260: c694 40be c6e3 283e 682f a23c cf08 20be
00000270: e037 a4bd 80b3 3a3e b430 5ebe bf49 43be
00000280: e0d5 1ebb 0e88 afbd aedf 323e a425 18be
00000290: c58c 07be c1e2 44be 3d59 143e 9396 73bd
000002a0: 0cd2 123e fc73 fdbc b991 d23d 9417 2abe
000002b0: 72f2 26be b803 5dbc a1b3 d0bd 44b9 2d3e
000002c0: 708b bb3d b720 023e ab11 303e e0f9 20bb
000002d0: 1485 a2bd 3941 1fbd c04b 7abd fd6a 313e
000002e0: 5f7c 823d 48d8 3ebe ff8e 003e d872 cebc
000002f0: 238a 163e b19b 03be ef0e 413e a0ea eabb
00000300: 31f7 21be e081 b63c 774d 393e d843 81bd
00000310: 6a25 cabd ba94 3d3e 95df 47be 43ff 18be
00000320: d806 7cbc a909 0c3e 92b6 113e 2bf2 a73d
00000330: 7815 91bd ec58 eebd 0e81 32be 0fea 31be
00000340: 978e 48be 0364 2b3e f358 a53d d9e1 3fbe
00000350: 4025 9fbd 1cf2 ef3d 7810 2b3e 552d a33d
00000360: 4ec2 233e 233d 263e a134 043e 6cd4 bfbd
00000370: 81b6 30be 8590 483e d14b b43d 8539 b0bd
00000380: 0a07 3f3e 6de8 173e 4b89 4c3e 2b34 e73d
00000390: a296 3dbe 81bb a43d 8040 f13d e769 133e
000003a0: 0fd8 0a3e 6d84 acbd bf8d 1bbd 6e24 19be
000003b0: 8426 0fbe f048 2fbe 588d 393e 04ae 063e
000003c0: 9236 7cbd c99e 37be f304 093e bba4 143e
000003d0: 91d3 eebd 6359 01be d2d2 273d 7fa6 0dbe
000003e0: 2c1a 023e f089 0b3e 1db2 0a3e 605c 46be
000003f0: 8001 46be 5fd0 12be 8a9b 18be 8875 08be

fc3.bias f4 [3]
0.08897372 0.0029554893 0.043474775
00000000: db37 b63d e2b0 413b 9b12 323d
