dueldoubledqn_agent_fixed_grid.pth (torch, 145205 bytes, 9 tensors)

feature.0.weight f4 [128, 11]
000000 cb c2 07 be 1e 83 10 be 62 cd ee 3c 78 4e 59 be
       -0.13257901 -0.14112517 0.029150669 -0.2122134
000010 48 62 9d 3e e8 7e 43 3e 6d 16 01 3e fe 63 88 be
       0.30739045 0.1909138 0.12606211 -0.26638788
000020 3f 91 9d 3d 37 32 58 3e b2 a4 bb 3d 1e 7c a1 be
       0.07693719 0.21112905 0.091622725 -0.31540006
000030 20 6f de bd d2 cf 83 3e a7 d4 97 3e 86 62 99 3e
       -0.10861039 0.25744492 0.29654428 0.2995798
000040 0f c8 4f 3e ef 8c 8d 3e 5a 37 7f be ba f9 f7 bd
       0.2029116 0.27646586 -0.24923459 -0.121081784
000050 fa 02 16 be 2b 2c 5c bd cb 6c 81 3e 5d e8 7a be
       -0.14649573 -0.05375306 0.25278315 -0.24502702
000060 39 a7 9d 3d 31 91 29 bd 13 f5 85 3e ee f4 fe 3d
       0.07697911 -0.04139823 0.2616354 0.124490604
000070 e5 17 7b 3e 6d 7a 7b bd e4 0c 99 bd da 6c 5f 3d
       0.24520834 -0.06139605 -0.07473162 0.05454717
000080 17 26 7d bd 61 b3 8c 3e b5 aa 9e 3e 10 07 88 3c
       -0.061803903 0.27480605 0.30989614 0.01660493
000090 5b aa a2 3e 85 7c a0 3e 4b 63 29 3e 89 de 99 3e
       0.31770596 0.31345 0.16541784 0.30052593
0000a0 7f 0b 77 3c 7d 5b 0f 3e 6e 8a 12 3e a3 74 50 bd
       0.0150784245 0.13999744 0.14310619 -0.050892483
0000b0 c4 f3 1c be 8a ef 98 3e b9 38 0c 3e c3 51 6b be
       -0.15327364 0.29870254 0.13693513 -0.22980408
0000c0 3d b3 1b 3d 20 c6 8f 3e 03 bb a8 3d 3d 1d 3f be
       0.03801273 0.28080845 0.08238795 -0.18663497
0000d0 2f 2c 46 be f2 92 13 3e a9 73 99 bd a8 ae ac 3e
       -0.19352792 0.14411524 -0.074927635 0.33727002
0000e0 a4 49 26 bc 76 9f ec 3d 56 32 a1 3d c5 25 57 3e
       -0.010149393 0.11553852 0.07870929 0.21010502
0000f0 e3 0a 5d bd 56 32 e4 3d d3 33 8d 3e b8 0f 6e 3d
       -0.05396546 0.11142413 0.275786 0.05812046
000100 d5 17 08 3e 85 92 3e 3e a1 3c 91 3e f6 7c 8c 3e
       0.13290341 0.1861058 0.2836657 0.27439088
000110 85 8b 01 be 8e 21 ff bd 61 5d 12 3c d7 c8 88 be
       -0.12650879 -0.12457572 0.008933396 -0.2671573
000120 c1 a3 0e 3e b5 fd 6a 3e 68 53 84 3e 25 2f f6 3d
       0.13929655 0.22948344 0.25844884 0.12020711
000130 d2 45 0d be 2c 54 07 be d4 fa 57 3e b0 00 50 3e
       -0.13796166 -0.13215703 0.21091777 0.20312762
000140 d4 44 88 be dc 19 fc bd c4 e8 86 3d df 46 96 be
       -0.26615012 -0.1230962 0.06587365 -0.29350945
000150 3c 9b 2e be 40 ed a2 bd 04 10 6d bd 30 a0 93 bd
       -0.17051405 -0.07955408 -0.0578766 -0.07208288
000160 80 a7 dc 3b 07 fc 52 be f1 f4 18 be bf 87 01 be
       0.0067338347 -0.20603953 -0.14937188 -0.1264944
000170 10 45 36 3d 30 0d 39 3e 16 77 05 be c5 c3 87 be
       0.044499457 0.18071437 -0.13033709 -0.26516548
000180 80 ed e0 3d f4 03 a2 3d 79 da 64 be 60 f7 92 bd
       0.109827995 0.0791091 -0.22348966 -0.07176089
000190 03 4d 83 be 3a 1c 86 bd d4 7e 13 3e e1 78 14 be
       -0.25644693 -0.065483525 0.1440385 -0.14499237
0001a0 81 a1 68 be c2 cf 20 3e b8 56 3f bd c0 95 c5 bd
       -0.22717859 0.15704253 -0.04671356 -0.09647703
0001b0 4b 60 68 be 0f 4e 6c be 43 2d 70 bd 93 3c 9f 3e
       -0.22692983 -0.23076652 -0.058636915 0.31100902
0001c0 85 5b 79 bc c8 a3 9d 3d 8f e0 32 be 53 b0 97 be
       -0.015219574 0.076972544 -0.17468475 -0.29626712
0001d0 d9 8a f3 bd b3 ca c3 3c b3 cd 10 3e 12 5d 3c bd
       -0.118917175 0.023900365 0.14140968 -0.045987196
0001e0 97 27 23 be 4c 5d 4a be 1a 4d de bd 8d 24 1f be
       -0.15933071 -0.19762152 -0.1085455 -0.15541287
0001f0 87 f7 4a 3d 79 a5 a1 3d ed b4 83 3e f6 a5 e2 3d
       0.049552467 0.078928895 0.25723973 0.11066811
000200 af 37 a4 3d e4 82 e3 bd 0c 36 68 be 1c b4 1c be
       0.08018433 -0.1110895 -0.22676867 -0.15303081
000210 c8 53 03 3e 42 24 20 be c7 d0 6d 3e 6f bf fd 3d
       0.12824929 -0.15638831 0.23224173 0.12390029
000220 a5 08 0f 3e b3 99 4a 3d e1 8a 96 3e b9 a8 3f be
       0.13968141 0.049462985 0.2940283 -0.18716706
000230 f9 79 a3 3e be 99 f2 3d b5 2a 10 3d 6c ce 23 3e
       0.31928995 0.1184573 0.03519698 0.15996712
000240 be 91 c5 bd bb 1e ab bc 09 eb 83 be b1 d0 64 3e
       -0.09646939 -0.020888677 -0.25765255 0.22345234
000250 8d 77 2a bd fd d9 14 3e f8 e2 92 3e 26 c2 96 3e
       -0.04161792 0.14536281 0.28688788 0.29444999
000260 1b 9c 69 3e ee 0d 7b bc b8 d2 e1 3d 76 8a 53 3e
       0.22813456 -0.015323145 0.110265195 0.20658287
000270 2d af 92 bd 91 90 88 be f9 ab c8 bc 07 38 a1 be
       -0.071623184 -0.26672795 -0.024496065 -0.31488058
000280 94 30 7a 3e f7 73 42 be 88 cc 8b 3e 44 63 0a be
       0.24432594 -0.1898955 0.27304482 -0.1351443
000290 20 b9 88 3e f0 6e da bc e6 2f 6f bd d4 e1 55 3e
       0.2670374 -0.026664227 -0.05839529 0.20886928
0002a0 d2 b9 47 3e c3 a1 46 be 04 9c ac 3e f9 c5 fc 3d
       0.19504479 -0.19397645 0.3371278 0.12342448
0002b0 fd fa 68 be b0 05 50 3e 4a 1d 41 be f2 f8 16 3e
       -0.22751994 0.2031467 -0.18858829 0.14743403
0002c0 75 a2 3b bd 3f 3e 43 be 47 e1 a5 bc ff d1 99 3d
       -0.045809228 -0.19066714 -0.020249022 0.07510757
0002d0 1e 59 ba bd 90 9e 24 be b9 f5 7d be bd fc c6 bd
       -0.09099029 -0.16076112 -0.24800767 -0.09716175
0002e0 4b ca 97 3e b7 3e 4c 3d 09 eb bd 3c 9c 44 8f 3d
       0.29646525 0.049864497 0.023183363 0.06995508
0002f0 10 f3 1f 3e 00 74 87 3b a1 83 22 be 00 e6 ba 3c
       0.15620065 0.0041337013 -0.15870525 0.02281475
000300 a0 f7 01 bd 89 5a 8f be e4 6c 6a 3e 35 f6 54 be
       -0.031730294 -0.2799876 0.22893101 -0.20797046
000310 2d 24 2e be 40 36 2d 3d b4 44 c8 3c 18 18 68 3c
       -0.17005987 0.042288065 0.024446823 0.014165901
000320 09 5c 8b be 4e 15 d9 3d 16 08 fa 3d 3b 33 4e be
       -0.27218655 0.10599767 0.122085735 -0.2013673
000330 ef 66 2a 3d 51 f8 7e be b3 5e 4f 3e f8 8a c3 3d
       0.04160207 -0.24899413 0.20250969 0.095479906
000340 37 16 9c 3e 80 20 e7 3d f0 5d 2c 3e 65 38 e9 bd
       0.304857 0.11285496 0.1683271 -0.113877095
000350 97 1a 9b 3e 65 d9 a7 3d 0c ab e5 bd 4f 61 a2 3e
       0.30293724 0.081957616 -0.11214265 0.31714866
000360 03 a7 10 3e 07 d3 1e 3d 3f 9c 03 3d db d7 63 3d
       0.1412621 0.03877547 0.03213143 0.055625778
000370 3c 47 60 3e 63 b0 f8 bd c9 d4 f2 bd 36 cc 23 3e
       0.21902174 -0.12143018 -0.11856992 0.15995869
000380 8a 4b 5b 3d fc 47 17 be d5 7b dc bd da a8 2c 3e
       0.053538837 -0.14773554 -0.107658066 0.16861287
000390 c6 99 84 3e f7 52 88 be 1a 29 77 bd 10 5b 93 bd
       0.2589857 -0.26625797 -0.060341932 -0.07195103
0003a0 c5 ac 87 be 56 20 81 3e 8c 23 3d 3e b8 aa 83 3e
       -0.26499 0.25219983 0.18470591 0.25716186
0003b0 ee 92 38 be 4b a1 45 be e0 8b 9a bc 58 87 c7 3d
       -0.18024799 -0.1929981 -0.018865526 0.09742612
0003c0 58 8c 80 bd a8 81 f0 bd d1 19 44 3e 51 86 99 3e
       -0.062767684 -0.1174348 0.19150473 0.29985288
0003d0 e8 ab 06 3d 16 d5 2b be eb 24 39 3e 69 af 00 be
       0.032878786 -0.16780505 0.1808049 -0.12566914
0003e0 56 db 0e be 2d 72 41 3e 0e 6b 5f be ea 9c 79 be
       -0.13950858 0.18891211 -0.21818182 -0.24376264
0003f0 ba 6f 9a 3e 39 ac 1e 3c bf 2e 4c 3e 6d e7 72 3e
       0.30163366 0.009684616 0.19939707 0.23721094

feature.0.bias f4 [128]
000000 2e a8 89 3e 36 22 f6 3d 6c b5 51 be 3e f9 84 bb
       0.26886123 0.12018244 -0.20479363 -0.0040580323
000010 c7 79 35 3e c3 f5 71 3e 2c 72 fb bc c0 fd a0 bc
       0.17722236 0.23628907 -0.03069409 -0.019652247
000020 44 b3 ed bd e0 78 6a bc 11 0a b0 3e dc 75 b3 3e
       -0.11606458 -0.014311045 0.3438268 0.35050857
000030 27 81 c6 bd f0 9a cc bd db 4a 95 bd 8c a6 42 be
       -0.096926026 -0.099904895 -0.07289668 -0.19008845
000040 3e 94 ac 3d 00 cf 92 be 37 af ce 3c 16 76 a5 3e
       0.084267125 -0.28673553 0.025230033 0.32316655
000050 f3 72 3a be f8 98 81 be 34 7e 67 3c 12 a4 ab bc
       -0.18207912 -0.25312018 0.01412921 -0.020952258
000060 44 42 40 3e 6f 66 04 37 c1 47 13 be 44 17 8a be
       0.18775278 7.891663e-06 -0.1438284 -0.26970875
000070 08 ae 6e 3e 2e 04 71 be fe cf 87 be 50 4d d8 bd
       0.23308575 -0.2353675 -0.26525873 -0.10561621
000080 9c 93 8a 3d bd 91 f3 bc 93 be 10 3d bb eb 1f 3e
       0.067664355 -0.02973258 0.035337996 0.15617268
000090 45 dd 33 3e ca e6 3f 3e 8c 21 64 bd c0 f3 ae bd
       0.17564876 0.18740383 -0.055696055 -0.085425854
0000a0 5a 9a 14 3e 64 51 3c 3e ac 04 a7 3d 80 13 70 3e
       0.14512005 0.18390423 0.08155188 0.23444939
0000b0 e4 79 73 bd 32 d6 9f bd ad 0d 20 be 4e a3 21 be
       -0.059442416 -0.078045264 -0.15630217 -0.15784952
0000c0 07 91 16 be de 9b 7a 3c 67 65 cc 3d 10 38 5b be
       -0.14703761 0.015295951 0.099802785 -0.21408105
0000d0 53 ff 8a 3e 40 42 94 bc 70 eb fb 3d 58 46 8c be
       0.27147922 -0.018097997 0.123007655 -0.27397418
0000e0 af f6 b6 bd b3 29 59 be 10 44 8c 3c 84 fb 9f 3d
       -0.0893377 -0.21207313 0.017122298 0.07811645
0000f0 6a 99 1b be f8 13 38 3e a5 93 09 bd c6 c5 b5 bd
       -0.15195242 0.17976367 -0.03358807 -0.08875613
000100 d0 d1 89 3e d2 5f 96 3e 84 7a 84 3e 7e b9 a7 3c
       0.26917887 0.2936998 0.25874722 0.020474192
000110 62 1f 58 3e cc 29 5d 3e 39 85 75 bc 21 0a 14 bc
       0.21105722 0.21597975 -0.014985376 -0.009035618
000120 64 42 9f 3c e4 2c 97 3e f0 ec 42 be 14 9b 2b bd
       0.019440837 0.29526436 -0.19035697 -0.04189594
000130 af fd 50 3e d3 02 a3 bb 4e 28 95 bd 55 0a 74 bc
       0.20409273 -0.004974702 -0.07283078 -0.0148950415
000140 dc d0 80 be 17 af 04 be 90 af fd 3c b2 7e 1a 3e
       -0.25159347 -0.12957416 0.030967504 0.15087393
000150 ea 64 85 bd 9e 76 04 be 16 61 0e be e2 c0 61 be
       -0.065133885 -0.12935874 -0.13904223 -0.22046235
000160 da ca 8f be c0 66 30 be 65 07 56 ba 89 af ab 3e
       -0.2808445 -0.17226696 -0.0008164554 0.3353236
000170 bd fb 44 3e df 19 0e 3c d3 74 8f 3e 0e 07 39 be
       0.19236656 0.00867316 0.28018817 -0.18069097
000180 3e b2 f3 bd b8 37 3a 3e d3 9e 07 be 3c 1d 8c 3e
       -0.118992314 0.18185318 -0.1324418 0.27366054
000190 a4 ec 41 3e 7c 45 63 3e 52 17 15 be 71 34 00 3d
       0.18937927 0.22194475 -0.14559677 0.031300012
0001a0 c0 9d fe bc 39 a4 db bd 64 8f 20 3d b2 80 8f 3e
       -0.03108108 -0.10724682 0.039199248 0.28027874
0001b0 80 5c 4d 3e ff 9d 62 3e b2 bf 8a be 1c 8a 98 3c
       0.20054817 0.22130583 -0.27099377 0.018620543
0001c0 a0 0e 16 bd 90 d2 50 bd 9a 06 30 3e 62 ea 04 3e
       -0.03663504 -0.050982058 0.17190018 0.12980035
0001d0 99 2d 6e be 54 92 78 be 18 ee 8b be 18 89 42 be
       -0.23259582 -0.2427457 -0.2733009 -0.1899761
0001e0 71 09 82 be f6 6d 88 be 3d d1 c1 3d 09 59 8c 3e
       -0.25397828 -0.26646394 0.09463737 0.27411678
0001f0 70 3a fe bc c4 f1 0f be d8 7a 89 3e e6 6e 57 3e
       -0.031033725 -0.1405707 0.26851535 0.21038398

value_stream.0.weight f4 [128, 128]
000000 59 19 3e 3d c8 2c 23 3e 84 77 66 3d 2e 75 83 3c
       0.046410892 0.15935051 0.056266323 0.016047087
000010 c1 33 8e 3d 2a 60 c1 bc ec 65 13 be 64 b3 91 bd
       0.06943465 -0.023605425 -0.14394349 -0.07114294
000020 a7 7b a1 3d 4c ae 93 bd 2e fa 06 be 04 62 c2 3d
       0.07884913 -0.07210979 -0.13181373 0.09491351
000030 59 00 df 3d 7c 1c f7 bc c8 c9 04 be 76 4b 7b 3d
       0.10888738 -0.03016495 -0.12967598 0.061351262
000040 08 b0 01 bc 63 47 af 3d 92 90 59 3d c2 36 9d bd
       -0.007915504 0.08558538 0.05311639 -0.0767646
000050 dc dd b4 3c 65 0e a1 3d 61 1f d4 bc 76 b7 e4 bd
       0.022078447 0.07864074 -0.025893869 -0.11167805
000060 45 1e 62 3d 10 c4 4e bc 67 cb 5d bd 4b d9 a6 3d
       0.05520465 -0.012619987 -0.054149058 0.08146914
000070 cf 6c 4c 3d 6c 2c 72 3c 4e 07 1f 3d 64 38 ae bc
       0.049908455 0.014781099 0.038825326 -0.021267124
000080 9d 69 e5 bc 10 e6 65 bd b3 4b a1 3d d4 cb 99 3d
       -0.028004462 -0.056127608 0.078757666 0.0750958
000090 5c bf a0 bc 80 aa ea 3d 90 86 d3 bb f7 d2 c6 3d
       -0.019622497 0.114583015 -0.00645525 0.09708207
0000a0 72 fe 10 be 80 03 95 bd 22 b7 1b bd a0 66 b9 bd
       -0.14159563 -0.07276058 -0.038016446 -0.09052777
0000b0 58 5d 8a bc 75 b8 83 bd 47 70 ec bc 46 66 bf bc
       -0.016890213 -0.06431667 -0.028862132 -0.023364197
0000c0 7f fe cc bd f8 6e 91 3d 9a 4e ed bc 10 b4 13 3b
       -0.10009479 0.07101244 -0.028968144 0.0022537746
0000d0 fc f1 f6 bc 00 50 7c bc 6d 63 87 3d 05 a5 90 3c
       -0.030144684 -0.015399933 0.06610761 0.017656812
0000e0 49 4c ab 3c f0 2d 3e 3c 30 fd d3 bb ca e2 11 bd
       0.020910399 0.011607632 -0.0064693913 -0.035616674
0000f0 23 93 24 3d ec 69 bf 3c c3 93 ce 3d da e2 57 3d
       0.040179383 0.023365937 0.10086777 0.052706577
000100 76 65 2f 3d d6 6e f8 3c 21 71 1e bc aa e2 0e bd
       0.04282137 0.030326288 -0.009670527 -0.034884132
000110 ed 31 bf bd e0 b7 da 3b 37 b2 cd bb 5c 3a 08 3e
       -0.093356945 0.0066747516 -0.0062773484 0.13303512
000120 06 a4 43 3d f0 a1 f0 bd f0 11 27 bc 7a ad c0 3c
       0.047763847 -0.11749637 -0.010197148 0.02352022
000130 1e e1 97 bd e1 67 74 bd a0 fa 0f bb 59 30 8d bc
       -0.074159846 -0.05966938 -0.0021969453 -0.017234968
000140 10 b2 78 3d 58 75 4a bc 0f 5b b2 3d c9 41 60 bd
       0.06071669 -0.0123570785 0.08708774 -0.054750238
000150 9a aa 3c 3d e1 24 0a bd ce 28 48 3d d9 ed 0e 3c
       0.046061136 -0.033726577 0.04886704 0.0087236995
000160 14 90 fc 3c 96 ce cc 3d b0 fb 31 bd c6 25 37 bd
       0.03083042 0.10000341 -0.04345292 -0.044713758
000170 78 ed 85 3d ea 4a d3 3d 05 06 b8 bd 29 e1 84 bd
       0.06539434 0.10317023 -0.08985523 -0.064882584
000180 ac ad 14 3d 09 fe 4c 3d 50 89 f0 3c 64 8e 46 bd
       0.03629844 0.050046954 0.02936235 -0.048475638
000190 c1 44 6b 3d 01 ee d6 bd ea 4c ea 3d ac 11 12 3d
       0.057438616 -0.104946144 0.114404514 0.035661384
0001a0 84 66 d6 bc 01 45 4e 3d 58 38 a9 3d 5b 38 c8 bd
       -0.02617193 0.050358776 0.082627 -0.09776374
0001b0 59 28 a8 3d 6d 87 0f 3e e3 ed 20 bd 17 84 25 3d
       0.08210821 0.14016505 -0.039289366 0.040409174
0001c0 c5 70 f8 bc 13 80 10 3d 21 9c ad 3d 2f ad 1a bd
       -0.03032721 0.03527839 0.08477045 -0.037762817
0001d0 a8 4d df bc 25 d6 52 bd f8 b0 30 3c 20 75 35 bc
       -0.02725871 -0.051473755 0.01078438 -0.011075288
0001e0 7a 94 11 3e 18 bf b6 3c 8b f4 cd bb 67 48 d2 3c
       0.14216796 0.022307917 -0.0062852553 0.02566929
0001f0 a8 4c af bc d1 19 0f 3e bd 70 ba 3d 87 61 a1 3d
       -0.021398857 0.13974692 0.09103534 0.0787993
000200 7e f7 b0 3d 35 c7 1a 3d 25 98 07 bd 10 b4 25 3d
       0.086409554 0.037787635 -0.03310408 0.040454924
000210 fc d8 64 3c 00 cd 59 3d dc e6 87 bd 20 f3 77 3c
       0.013967749 0.05317402 -0.0663583 0.015133649
000220 cc 65 3e bd e8 5a 77 3c 5f 88 c7 bd 84 ec 90 3c
       -0.0464838 0.015097357 -0.097428076 0.017690904
000230 21 27 a6 3d 8d 14 71 3d 3a 6c 7b bd c3 26 10 3e
       0.08112932 0.05885749 -0.06138251 0.14077286
000240 da c8 a1 3c d8 ac b3 bd 2a de 89 bd a3 4a 59 bd
       0.019749094 -0.08773202 -0.067318276 -0.053049695
000250 f8 3b 56 3c 3a fc 59 bd f7 a9 d3 bb 46 cf 07 bd
       0.013075821 -0.053219058 -0.0064594704 -0.033156656
000260 2d 2e d6 bd 54 4a 78 3d 5a 89 99 bd 68 2d 87 3c
       -0.10458026 0.06061776 -0.07496901 0.016501144
000270 82 e4 0a 3e cf 38 0a 3c 56 48 d3 3c 21 51 8b 3d
       0.13563731 0.008436396 0.025791328 0.068025835
000280 80 d2 f9 bd 08 dd d9 3d 12 16 1e bd 8e 19 c0 3d
       -0.12198353 0.106378615 -0.038595267 0.09379874
000290 e9 40 6b 3d c1 3e ec 3d f8 19 0c 3d e7 3b d7 3b
       0.05743495 0.11535407 0.034204453 0.00656842
0002a0 a4 d9 10 be e2 2c 86 bd a0 27 a8 bd d1 d5 08 be
       -0.14145523 -0.065515295 -0.08210683 -0.13362814
0002b0 51 ce 89 3d 48 76 31 bc 62 5f 95 3d 5b e3 a4 bc
       0.06728805 -0.010831423 0.072935835 -0.020127943
0002c0 55 38 87 3c a4 39 af 3d 8b 4a ff 3b 2b a7 0c 3e
       0.016506353 0.08555916 0.0077908686 0.13735645
0002d0 a7 36 18 bd 10 4a 84 bc d4 52 ac 3c b8 f6 d9 3d
       -0.037161496 -0.016148597 0.02103559 0.10642761
0002e0 b8 0a 95 3c 0c 03 c2 3c 8c dd 88 bd fd 2a 20 bc
       0.018193588 0.023683093 -0.06682882 -0.009775874
0002f0 ba 5f bb 3d 68 70 82 bc 18 35 30 3c d0 56 90 bc
       0.09149118 -0.01592274 0.010754846 -0.01761952
000300 f9 e5 b0 3d 32 a8 f4 3c 2b 62 4e bd 32 9e e0 3d
       0.08637614 0.029865358 -0.05038659 0.10967673
000310 dc 70 1f be 6e 86 98 bd 02 df f7 bc 9c 81 0d 39
       -0.15570396 -0.074475154 -0.030257706 0.00013495091
000320 a5 c6 6e 3d ac 5a b3 bc 2e 3f 41 bd 5b 04 21 3c
       0.05829491 -0.021893822 -0.047179393 0.009827699
000330 97 74 c0 bb 2d 1d 0a 3d 72 05 5c 3d 38 83 55 bc
       -0.0058732736 0.03371923 0.05371613 -0.013031773
000340 1d a2 d9 bb cf 21 b3 bd 4f 28 9c 3d a4 de a1 bd
       -0.00664164 -0.08746683 0.07624876 -0.079037935
000350 a9 ed 9e 3d f1 a9 9b bd c8 14 46 bc 7b 35 0d 3e
       0.07760174 -0.07600773 -0.012089916 0.13789932
000360 fb fc 98 bd 77 38 ab 3d 8b 4f 29 3b 44 6a 9c 3a
       -0.07470127 0.08360379 0.0025834765 0.0011933525
000370 51 05 b9 bb 3d 41 c8 3c 66 84 cd bd 50 64 f2 3b
       -0.0056463857 0.02444517 -0.100350186 0.007397212
000380 bd 42 b4 3d 2d d8 09 bd b0 74 b1 3b 24 f7 09 bd
       0.08801792 -0.033653427 0.0054155216 -0.033682957
000390 41 c8 6d 3d 30 e7 b7 3c f6 7e 26 3c 65 b1 d8 3c
       0.058052305 0.022449106 0.010162106 0.026451776
0003a0 b7 4a 78 bd a9 80 84 3c 8f 89 84 3d b6 94 28 bc
       -0.06061813 0.016174631 0.0647155 -0.010289362
0003b0 87 97 09 3d 41 2a cb 3d 41 ca 22 bd 79 5a eb 3d
       0.033591773 0.09920169 -0.039743666 0.11491866
0003c0 91 0f fe bd a2 5d b6 3d 4d 88 41 3d 84 65 da bc
       -0.12405313 0.08904578 0.047249127 -0.026659735
0003d0 2b 89 c5 bd df 00 8f 3d 70 ba b3 bb 70 20 9e bb
       -0.09645303 0.06982588 -0.0054848716 -0.004825644
0003e0 b4 bd d6 3c 61 e6 8d 3d f8 df bb 3c d4 47 c4 3c
       0.026213504 0.06928707 0.022933945 0.023960032
0003f0 d4 a2 bb bc 82 36 15 3e 92 fb 38 39 fc 76 18 3c
       -0.022904791 0.14571574 0.00017641325 0.009305712

value_stream.0.bias f4 [128]
000000 4f b2 19 bc e4 ac b7 bb 1c 58 16 bd ec 26 2c bd
       -0.009380891 -0.005605327 -0.03670512 -0.042029306
000010 8e 0e a4 bd ea 7f 8c bd e3 c9 01 bd 82 d9 ef bc
       -0.080105886 -0.06860335 -0.031686675 -0.02927852
000020 ae 9e 08 3c 48 fe 5d 3c b3 ac ae bd 96 6a 97 bd
       0.008338613 0.013549395 -0.085290335 -0.073933765
000030 9d cb 96 3d 5a 52 95 3d c6 45 91 3d 3f f1 ee 3c
       0.07363055 0.07291098 0.07093386 0.02916777
000040 f9 59 54 3d c0 d5 64 3c 7e b7 4b 3d 98 70 5a 3d
       0.051843617 0.013966978 0.04973554 0.053330034
000050 47 9f be 3d b9 f6 f5 3d 4d 25 8e 3d c3 13 2e bd
       0.093077235 0.12009949 0.06940708 -0.042499315
000060 61 e1 be 3d d8 91 40 bc 04 43 9b 3d cc d0 69 bd
       0.09320331 -0.011753522 0.075811416 -0.05708389
000070 64 39 38 bd 02 17 8b 3d a7 c7 1c bd 83 b2 d5 3d
       -0.044976607 0.06791498 -0.03827634 0.10434439
000080 62 6b 6b bc 80 ef f2 bc d8 36 ae bd cc 33 a7 bd
       -0.014368864 -0.029655218 -0.08506554 -0.08164176
000090 10 e5 96 bc 38 a1 cd 3d 24 aa 5d 3d 42 be d6 bc
       -0.018419772 0.10040516 0.054117337 -0.026213769
0000a0 c8 8b d7 bc 8f b0 3d bc 23 f7 4e bd e5 ef 95 3c
       -0.02631177 -0.011577739 -0.050528657 0.018302867
0000b0 e5 77 99 3d 38 4f 16 3c 1f 34 f5 3b 23 ea 88 3d
       0.07493571 0.009174161 0.00748302 0.06685283
0000c0 30 49 b3 3d ca 64 26 3d 19 96 ba bb 67 5e 91 3d
       0.08754194 0.040623464 -0.0056941626 0.07098084
0000d0 ec ff 90 3d 5a 8c 03 bc 75 5c cb bc 73 1d 80 bc
       0.07080063 -0.008029068 -0.02482436 -0.015639042
0000e0 6e f2 2c bd 44 08 88 3d c3 5a 96 3d 4e a3 55 bd
       -0.042223386 0.066422015 0.0734153 -0.052157693
0000f0 18 d7 76 bc 00 9e 7b b9 67 3a b3 3c d8 5d 2f 3d
       -0.015065931 -0.00023996085 0.021878434 0.042814106
000100 f2 de 9c 3b 9d 3a ab 3d c8 b0 59 bc e9 e2 e2 bc
       0.0047873193 0.08360789 -0.013286777 -0.02769609
000110 08 30 3d 3c f3 74 4e bd e3 e9 bb 3c 00 98 43 39
       0.011547096 -0.0504045 0.022938674 0.00018653274
000120 4b df b7 3d f3 f2 f6 3c f2 2b cf bb f7 db 91 bc
       0.08978137 0.030145144 -0.0063223774 -0.017805083
000130 fc 4c 8e bd a4 31 39 bc 15 5a 81 3c 9f 0b 35 bd
       -0.06948277 -0.011303339 0.015790025 -0.044200536
000140 e8 a8 ab ba f0 c8 66 3c 6b 02 88 bd f4 45 b9 bc
       -0.0013096603 0.014085993 -0.06641086 -0.022616364
000150 6b 79 82 3d 54 97 12 bd c9 ef 9a 3b 21 9c 58 3d
       0.06370815 -0.03578885 0.0047282916 0.05288327
000160 0a 12 5f 3b f9 ad 19 bc 50 37 b6 3d 90 d7 8e bd
       0.0034037852 -0.009379857 0.08897269 -0.06974709
000170 73 ec 93 3d ed 5e 8d 3d 8c 44 8d bc 59 c6 74 3d
       0.072228335 0.06902871 -0.0172446 0.05975947
000180 e3 71 d5 3b e8 8b 4c bd ba 98 2d bd 44 29 da bc
       0.0065138205 -0.049938112 -0.04238198 -0.026631005
000190 c0 6b 33 3c a8 a9 bf 3d 5d 41 61 bd 09 68 16 bd
       0.010950983 0.09358531 -0.054993976 -0.03672031
0001a0 6a 1a 0b 3d 78 3f cd bc 2e 23 82 bd cc 24 8e bd
       0.033960737 -0.025054678 -0.06354366 -0.06940612
0001b0 2f e7 98 3d 0e 80 da 3d b9 ed 12 bc 02 11 c1 bc
       0.0746597 0.10668956 -0.00896781 -0.02356768
0001c0 a9 86 c5 3d 9e f8 e5 bc 7e d2 a1 ba 78 ab 83 bc
       0.09644825 -0.028072651 -0.0012346057 -0.016072974
0001d0 84 d9 33 bd 35 a2 45 bd 54 55 e2 3d 01 cf 22 3d
       -0.04390861 -0.048250396 0.11051431 0.039748196
0001e0 3f fb 41 3d e9 2b 05 bb c4 f3 31 bd 50 b0 69 bc
       0.047358748 -0.0020320362 -0.043445364 -0.014263228
0001f0 fb b5 77 bd 49 79 94 3c ef e7 c8 bc 6e 84 ee 3c
       -0.060476284 0.01812424 -0.024524657 0.029115882

value_stream.2.weight f4 [1, 128]
000000 64 c7 d4 3d 20 a4 c0 3d 64 31 ad 3c 39 b1 07 3e
       0.10389593 0.09406304 0.021141715 0.13251199
000010 e2 77 a2 3d 48 a6 37 3c 86 80 26 3e f4 22 bb 3c
       0.07933022 0.011209078 0.16259965 0.022843815
000020 ac 14 94 3d ee 98 94 3d e8 aa 82 bc 4c 5c 7b bd
       0.07230505 0.072557315 -0.015950635 -0.061367318
000030 4d 43 21 bd 0f ce d2 3d 54 7c a1 3d 61 4d e6 bd
       -0.039370824 0.10293209 0.07885042 -0.112452276
000040 0f 25 ed 3d 98 c0 ec 3c 78 ac 70 3d 2b a9 6f bd
       0.11579334 0.02890043 0.05875823 -0.05851094
000050 0c 0d 92 bd 2e f1 d8 bd 85 47 18 3e 2a 39 9f bd
       -0.07131395 -0.105928764 0.14871033 -0.07774575
000060 fc 83 a0 3d d6 15 2b 3d 66 78 21 3e af 85 d8 3c
       0.07837674 0.04176887 0.15768585 0.026430933
000070 87 5e 3e bd b9 c2 e9 3d 56 4c ce 3d d4 08 ef bd
       -0.046476867 0.114140935 0.10073154 -0.11671606
000080 2e e6 00 3e f5 c7 8c bd 4e 8d 5f 3d 1e 07 2f 3d
       0.12587807 -0.06874076 0.054578118 0.042731397
000090 30 ad 91 3c 9e 31 c6 bd 1a 38 c2 bd 69 af ab 3d
       0.017782778 -0.096774325 -0.09483357 0.08383066
0000a0 3b c1 b1 3d f0 67 9d bd 72 a1 22 3e 93 3d 13 be
       0.08679434 -0.0768584 0.15881899 -0.14378957
0000b0 e8 de c8 3d 40 27 97 bc f4 fb 9c bd 8a e8 a5 bd
       0.09808141 -0.018451333 -0.07665244 -0.08100994
0000c0 22 a8 6c bd e0 37 8b bd 10 47 ce bd 6e 4e 1c be
       -0.05777753 -0.06797767 -0.10072148 -0.15264294
0000d0 72 0c 83 bd e2 76 87 bd 26 8b ce 3c bd 56 ee bd
       -0.06398858 -0.06614472 0.025212836 -0.11637638
0000e0 87 94 91 3d 2c 69 9a 3d f2 1c 16 3d 3a a9 7a 3d
       0.071084075 0.07539591 0.0366487 0.061196543
0000f0 c8 27 e7 3c 8e 48 9f bd 2d 2d a1 3d b6 e3 05 3e
       0.028217211 -0.077775106 0.07869945 0.13075146
000100 df da a8 bd ad fd 01 be cf 89 a1 bd f2 30 d1 3d
       -0.08244871 -0.12694426 -0.07887613 0.10214414
000110 d0 64 29 3c c1 5a b0 3d 5f f4 43 3d 80 8b 50 3a
       0.010338977 0.0861106 0.047840472 0.00079553574
000120 6d 23 17 be 2d 84 9c 3d 2a fa de bd ca a7 13 3e
       -0.14759608 0.07642398 -0.10887559 0.14419475
000130 66 4a bf 3d a0 4a 0f 3e 37 7f e2 3d 50 36 ce bc
       0.09340362 0.13993311 0.110594206 -0.025172383
000140 75 74 a8 bd 3e 14 5e 3d 58 48 b9 bc a0 e7 2a bc
       -0.082253374 0.054218523 -0.022617504 -0.0104312
000150 f3 54 14 be db 44 bc bd 0a fd c2 bd d4 11 09 3e
       -0.1448553 -0.09192821 -0.095209196 0.13385707
000160 4a 65 ad 3d 02 9b 4a bd a0 ce d7 bd 43 18 8b bd
       0.08466585 -0.049464233 -0.105374575 -0.06791737
000170 7a 7c f6 3d 58 38 07 3d a3 22 79 3d 20 44 00 3e
       0.12035461 0.033012718 0.060824048 0.12525988
000180 ae e2 9f bd ba 40 ab bd 27 54 d3 bd e5 8f d2 bd
       -0.078069076 -0.08361955 -0.10318785 -0.10281352
000190 1a 0b f1 bd 33 31 ed 3d c7 ef f8 3d c5 03 4a 3c
       -0.117696956 0.1158165 0.12155109 0.01233
0001a0 b2 c5 23 bd 8f 4f 50 3d bd 84 83 bd 12 c9 64 3d
       -0.03998346 0.050857123 -0.06421802 0.055855818
0001b0 2e da 9c 3c 22 ef a0 bd 5e 94 77 3d de aa 80 3d
       0.019147005 -0.07858111 0.06044423 0.0628259
0001c0 ba 45 01 be 35 25 8c bd 9e c5 b7 bd a1 ca d2 3d
       -0.12624255 -0.06843034 -0.08973239 0.10292555
0001d0 37 b0 24 be 84 62 9a bd ae 3c 94 bd da db c2 bd
       -0.16082846 -0.075383216 -0.07238136 -0.095145896
0001e0 f2 bf b7 bd f6 63 d8 3d ac 69 58 3d ba 3f 77 3d
       -0.089721575 0.10565941 0.05283515 0.06036351
0001f0 4c b2 81 bc 9b c1 b2 bd 65 ba 10 bd c4 29 1c 3e
       -0.015832089 -0.087283336 -0.03533401 0.15250307

advantage_stream.0.weight f4 [128, 128]
000000 4d e1 8b 3b 3a d4 13 3d 13 50 f7 bb bd 6c 86 bd
       0.0042688013 0.036091067 -0.0075473874 -0.06563709
000010 15 b3 dc 3c 76 a7 f2 3c 6c 11 75 bd dd 92 8d bd
       0.026940862 0.029620867 -0.059831068 -0.069127776
000020 d7 25 b1 3d 08 b8 55 bd 93 e5 fc 3c 93 d4 13 3d
       0.086497955 -0.05217746 0.030871188 0.0360914
000030 c6 a2 84 bd 86 3d 93 3d c6 3b 32 3d 4f 44 74 3d
       -0.06476359 0.07189469 0.043514036 0.059635457
000040 3f c2 09 bd 7a cc 4f 3d e6 04 7b 3d 33 23 1a 3c
       -0.033632513 0.050732113 0.06128397 0.009407806
000050 70 7f d6 3b cc ab 0a 3d 0e 54 10 bc 92 ce 1b 3d
       0.0065459535 0.033855245 -0.008809103 0.038038798
000060 32 35 51 3d 66 7b 1f 3d 30 29 c5 bc 3c cf a3 bb
       0.05107612 0.03893604 -0.024067491 -0.0049990695
000070 c2 07 eb 3c 72 1b 8c 3d 63 10 93 3d 73 13 99 3d
       0.028690223 0.06841172 0.0718086 0.07474413
000080 c0 a7 b6 bd 30 29 cb 3b 8d f6 91 bd 87 89 7d 3c
       -0.089187145 0.0061999783 -0.07127104 0.015474684
000090 af c3 a1 bd 7a a6 68 3d a8 96 2f bc e7 c8 68 bc
       -0.07898652 0.05679939 -0.010717072 -0.014208055
0000a0 d6 0d 4f 3b 17 36 b1 3c 38 0a 7a bd e5 74 53 3d
       0.003159394 0.021632237 -0.0610449 0.05162515
0000b0 2a 12 fc bc b9 12 a0 bd fe c2 0c bd a5 04 a0 bd
       -0.03077038 -0.07816071 -0.034365647 -0.07813386
0000c0 c8 12 de 3c a2 c6 4b bd 43 c7 63 3d c4 29 c8 bc
       0.027108565 -0.049749978 0.055609953 -0.024433978
0000d0 18 a3 95 3d 20 41 ff bc 47 cd 77 bd 45 01 1b bd
       0.07306498 -0.031158984 -0.060498502 -0.037843008
0000e0 21 bf a9 bd 81 84 9f bd cc 9a df 3c ee f4 a7 bc
       -0.08288408 -0.07788945 0.027295493 -0.020502534
0000f0 57 93 b9 bd 00 59 75 ba a6 69 2d bd 72 f2 a9 bd
       -0.09061306 -0.00093592703 -0.042337082 -0.08298196
000100 f7 61 08 bd c9 e6 ab bc 56 94 b6 3b 5a 15 6f bd
       -0.03329655 -0.02098407 0.0055718822 -0.05836997
000110 3a d1 14 3d 27 e0 1e bd 35 2b 39 3b af 48 d6 bb
       0.036332346 -0.038787987 0.0028254513 -0.0065394263
000120 c6 38 59 bd 6c 1c 5d 3d 49 26 4c bd fb e2 76 bd
       -0.05303266 0.053982183 -0.0498412 -0.06027506
000130 04 57 54 3d db 46 ab bd 10 c0 ed bc e3 f8 a5 3d
       0.051840797 -0.08363124 -0.029022247 0.08104112
000140 9a d2 2c 3d 82 47 3d bd b0 d7 da bb 36 4e c1 3c
       0.042193033 -0.046210773 -0.006678544 0.023596864
000150 cc 02 90 3c 7e cf dc 3c 76 16 6a bd 30 3f 9f 3d
       0.017579459 0.026954409 -0.057150327 0.07775724
000160 49 fd 07 bd 21 9c 5e 3d fc 67 b2 bc f4 67 b8 3d
       -0.033200536 0.054348115 -0.0217781 0.090042025
000170 3a 12 53 3d a4 04 ab 3b c4 78 a0 bd 82 c2 2e 3d
       0.051531054 0.005219059 -0.07835534 0.042665966
000180 4a f3 70 3d b2 f9 9c 3d 00 08 85 bc 03 01 ce 3b
       0.05882577 0.07664813 -0.016239166 0.0062867417
000190 72 7e 3a bd f4 49 5f bd e7 ff 74 bd a3 b1 ad bd
       -0.045530744 -0.054513887 -0.05981436 -0.08481147
0001a0 7a 31 83 3b 45 cf a9 bd f7 43 93 3d 66 ae c8 3c
       0.004003701 -0.08291487 0.07190698 0.024497222
0001b0 13 2d a5 bd 7a 9f 95 bc 4e ac 06 3d f0 7d 3f 3d
       -0.08065238 -0.01826452 0.032879166 0.046750963
0001c0 fc f2 8d bd 58 c1 78 bd 10 b9 11 3d e7 00 42 bd
       -0.06931111 -0.060731262 0.03557688 -0.04736414
0001d0 94 83 96 bd 2e ea 14 bd 4d cc 84 3d a8 19 a6 bd
       -0.07349315 -0.036356144 0.0648428 -0.08110362
0001e0 1d b0 83 bd 62 7b 57 3d df 95 98 3d 7e ad 96 3d
       -0.06430075 0.0526079 0.07450461 0.0735731
0001f0 a0 99 91 bb 51 20 fd 3c 79 29 b5 3d 4d dd 37 bd
       -0.0044433624 0.030899199 0.08845801 -0.044888783
000200 f8 c7 35 bd 2b a4 9a bd 82 a7 5d bd 02 7a 79 bd
       -0.04438016 -0.07550844 -0.054114826 -0.06090737
000210 c7 b2 87 bd a3 7a 07 bd e4 24 25 3d c0 f0 d9 ba
       -0.06625896 -0.03307594 0.040318385 -0.0016627535
000220 7e 4a 93 bd f8 ff c5 3c c1 12 db bc 38 30 91 bd
       -0.07191943 0.024169907 -0.026742341 -0.07089275
000230 64 d2 a7 3d c9 37 f0 3c 31 02 98 bd 88 e7 47 3c
       0.08194426 0.029323475 -0.07422293 0.012201197
000240 af d5 a9 3c 2e b0 50 bd 6b b7 58 bd 04 0b c1 3d
       0.020731775 -0.050949268 -0.052909296 0.09425929
000250 d6 08 26 bd b8 6f c3 3c 81 97 d8 3d 8a ae 5d bc
       -0.04053577 0.023856983 0.10575772 -0.013530383
000260 84 f7 a1 3c 62 5a 34 bd e6 5e 79 bc 3c 99 5d bd
       0.019771345 -0.04403151 -0.015220379 -0.054101214
000270 02 4d 91 3d fd 15 49 bd 57 9a 7b bd 1a 62 5a 3d
       0.07094766 -0.049093235 -0.061426487 0.053316213
000280 24 e3 7a 3d 86 19 4e bc cc 8b a9 bc 96 ae 1b 3d
       0.061251774 -0.012579327 -0.020696543 0.038008295
000290 92 d8 7c bd af a2 c5 3d c7 ac 98 3d 2d 2a a9 bd
       -0.061729975 0.0965017 0.0745483 -0.082599975
0002a0 ee 64 b5 bb 64 43 2c bd 08 13 cd 3c 9b 29 5f bd
       -0.0055357134 -0.042056456 0.025033489 -0.054483037
0002b0 b6 a3 85 bd c0 0f ee ba 63 5d 43 bd 14 ab a4 3d
       -0.06525366 -0.0018162653 -0.047696482 0.08040443
0002c0 87 41 a6 3d d1 ad f8 3b 75 77 52 3c fd a6 cf 3c
       0.08117967 0.00758908 0.012845864 0.02534818
0002d0 c3 84 95 3d b4 f3 a6 bc de 2e 69 3d c1 76 a5 bd
       0.07300713 -0.020379879 0.05692946 -0.08079291
0002e0 62 7e fc 3d ec b0 dc bc 67 24 97 3d e2 bb cb 3d
       0.12328793 -0.026939832 0.0737999 0.09947945
0002f0 a7 76 a7 bd 90 f7 cb bc d2 bf fb bc 78 d9 34 bc
       -0.08176928 -0.02489832 -0.030731115 -0.011038177
000300 e0 18 08 3c 5f f2 ac 3d 6c d9 92 3d 51 84 a3 bc
       0.008306712 0.08444666 0.07170376 -0.019960554
000310 63 74 e0 3d cc 92 77 bd b9 81 62 3d fc ba 29 3d
       0.10959699 -0.06044273 0.055299494 0.041438088
000320 cb 18 79 3d 7e fb a9 bc 35 55 b0 3d cb 01 82 bd
       0.06081466 -0.020749804 0.08610002 -0.06347998
000330 cb 3d 8f 3d 3f c3 99 bd f0 46 7d bd cc 75 68 3d
       0.06994208 -0.07507943 -0.06183523 0.056752965
000340 1b cf 84 bd 08 7e 80 3c 07 4a 69 bd 2b 5c e1 3d
       -0.06484815 0.015685096 -0.056955364 0.11003908
000350 48 71 2b bc bd 5f 8a 3d f0 28 a4 bb 98 33 27 3d
       -0.01046402 0.06756542 -0.005009763 0.040820688
000360 3e f4 29 3d fa 38 e6 bd 01 6a cf 3d 80 fb 8d bc
       0.041492693 -0.11241336 0.101276405 -0.017331839
000370 90 29 62 bd 67 f9 c3 3d 77 1b d4 bb 20 38 df 3c
       -0.05521542 0.09569054 -0.0064730006 0.027248442
000380 f9 ee 93 3d e1 b2 8b 3d 9a 0b 63 bd 9a 73 84 bd
       0.07223315 0.06821228 -0.055430986 -0.06467362
000390 3b d0 9e bc 52 0a a3 3c c7 7a 85 3d 1e 90 7c 3d
       -0.019386401 0.019902382 0.065175585 0.06166088
0003a0 7c df 31 3d ae 9c 1e 3a 4e f7 32 bd a7 78 06 3d
       0.043426022 0.0006050569 -0.04369288 0.032829907
0003b0 0c fa 48 3d 94 26 59 3c 6a 79 4f 3d ae 8e 84 3b
       0.04906659 0.013253827 0.0506529 0.004045329
0003c0 27 32 c8 3d a3 82 ff 3b 8e e2 bd bb e7 14 55 bd
       0.09775191 0.0077975555 -0.0057948297 -0.052021887
0003d0 7c 7c d0 3b 00 c2 59 bb c8 d9 12 bc 90 53 a6 bc
       0.006362496 -0.0033227205 -0.008963056 -0.020303518
0003e0 67 e6 07 3d 26 96 6f 3d fc 02 77 bd cb 67 60 bb
       0.033178713 0.058492802 -0.06030558 -0.0034241553
0003f0 fe 73 8b bd bb 92 88 bd 96 b6 dc 3c 04 98 f6 3c
       -0.06809233 -0.066686116 0.026942533 0.030101784

advantage_stream.0.bias f4 [128]
000000 f2 0c b0 bd df 91 ad 3c 46 0f 25 3d 54 f9 ae bc
       -0.08596219 0.02118772 0.04029777 -0.021359123
000010 14 72 d4 bc 38 c6 00 bd c7 89 4f bd 2e 7f 2a 3d
       -0.025933303 -0.031439036 -0.050668504 0.041625194
000020 13 a7 29 bd ff 43 9c bd 9c 9c 69 3c 0f 3a 99 bd
       -0.0414191 -0.07630157 0.01425853 -0.07481777
000030 52 20 88 bb 97 3d d1 bb 04 23 b6 3c cf f4 01 bd
       -0.0041542435 -0.006385516 0.022233494 -0.03172761
000040 8c e2 48 bd 71 de 61 bd 5a de 9c 3d 00 2a ac 39
       -0.049044177 -0.055143777 0.07659598 0.0003283769
000050 f9 b3 4f bd cb b1 19 3d 12 9a 8e bd 14 65 11 bc
       -0.050708745 0.037523072 -0.0696298 -0.008874197
000060 42 e3 12 3d 91 3a 46 bd 0a bd 41 bd d0 80 f5 3c
       0.03586126 -0.048395697 -0.047299422 0.02996865
000070 19 a0 4f bb 68 de b6 3c f2 c1 de bc 00 89 80 bd
       -0.003168112 0.022322848 -0.02719209 -0.06276131
000080 ae ff 46 3d 9b 2a 45 bd 08 a8 94 3d 66 83 72 3d
       0.04858368 -0.048136335 0.07258612 0.059207343
000090 f7 76 df 3b 70 9b 9f bb 33 84 a1 3d f5 54 4e 3d
       0.0068196016 -0.0048708245 0.07886543 0.05037399
0000a0 f6 fe 84 3d 88 58 40 3c 36 fe f0 3c e9 8d 16 3d
       0.064939424 0.0117398575 0.029418092 0.03675643
0000b0 c0 42 a2 3c 9a d1 24 3c fe 72 9a bd 16 a5 0f 3d
       0.01980722 0.0100597385 -0.07541464 0.035069548
0000c0 ad 42 88 bd 7e 6a 37 bd a6 ca 06 3d 82 44 d3 3c
       -0.066533424 -0.044779293 0.032908104 0.025789503
0000d0 14 2f bf 3d ab 99 9d bc e7 82 e7 bc 9a 8e 53 3d
       0.09335151 -0.019238314 -0.028260661 0.051649667
0000e0 b0 35 28 3c af 84 c2 3c 46 4d 75 3d 1c a6 1f bd
       0.010266706 0.02374491 0.059888147 -0.038976774
0000f0 ac d8 51 3d 92 3e b3 3d c5 d7 8c bd fc 2d 97 3c
       0.051232025 0.08752169 -0.06877092 0.018454544
000100 41 83 3f 3d be 76 9a bb 95 9d d5 bc cb 2d 80 bd
       0.046756033 -0.004713862 -0.026076118 -0.06258734
000110 07 2e 59 bd a8 a7 35 3d 0f 9a 10 3d 13 01 30 bd
       -0.05302241 0.044349343 0.03530317 -0.042969774
000120 ea e3 9d 3d 9a 7b 00 bd 5d 34 86 3d 8a 70 8a 3c
       0.07709487 -0.031367876 0.06552956 0.016899366
000130 55 13 dd bc aa 62 97 3d 1d 01 57 bd ed 45 6c 3c
       -0.026986757 0.073918656 -0.052491296 0.0144209685
000140 80 58 15 bd 31 50 79 bd 36 5a fa bc 01 ff 90 bd
       -0.036461353 -0.060867492 -0.030560594 -0.07079888
000150 f5 80 8b 3c f2 72 87 3b 84 27 a1 bd 79 83 93 3d
       0.017029265 0.0041335756 -0.07868865 0.07202811
000160 82 51 91 3d 7d 3b 29 3d e2 3d 4b bc bb d9 78 3c
       0.070956245 0.041316498 -0.012404891 0.01518863
000170 bb 7a ae 3d e2 15 c2 bc ff 41 2b 3c 38 d2 72 bd
       0.08519503 -0.023692075 0.010452746 -0.05928251
000180 81 e2 10 bd a2 a5 82 bd 25 08 26 bd 60 69 e8 bc
       -0.03537226 -0.06379248 -0.04053511 -0.02837056
000190 57 c4 68 bd 14 b0 70 bd 99 3a 6d 3c 1d 96 6e 3d
       -0.05682787 -0.05876167 0.014479303 0.058248628
0001a0 e7 ce b4 3c 57 c4 c5 bb 2f 68 4f bd ba 1d 35 3d
       0.022071315 -0.0060353684 -0.050636467 0.044217803
0001b0 60 53 90 3b 0f d9 a5 3b 02 be 5a bb 43 3d 5f 3d
       0.0044044703 0.005061276 -0.0033377414 0.054501783
0001c0 72 34 fd bc 04 99 7b bd 7e 04 a6 3c e3 17 ab 3d
       -0.030908797 -0.061425224 0.020265814 0.083541654
0001d0 7d b4 72 bd 7a 3f a8 3c 4e d5 69 3c b8 ff 96 3c
       -0.05925416 0.02053808 0.014272047 0.018432483
0001e0 af 08 8a bd dd 2b 27 bc 42 1e 23 3d 70 41 34 bd
       -0.067399375 -0.010203329 0.039823778 -0.04400772
0001f0 16 f7 9c bd 16 46 93 3d 97 a6 16 3c 12 95 b0 bd
       -0.076643154 0.07191102 0.009194992 -0.08622183

advantage_stream.2.weight f4 [3, 128]
000000 43 8c 97 3d 25 f1 00 be 98 86 47 bc a1 a2 64 bd
       0.073998 -0.1259199 -0.012178086 -0.055819158
000010 58 25 47 3d 30 65 32 3d 4a a0 dd 3d a8 82 c2 bc
       0.0486196 0.04355353 0.10821588 -0.023743942
000020 05 44 87 bd 58 c4 9c bd a3 43 93 bd 90 eb ad bd
       -0.066047706 -0.07654637 -0.07190635 -0.084921956
000030 bf 36 49 3d 4a ca a3 3d b8 ec 97 bd a1 25 00 bd
       0.049124476 0.07997568 -0.074181974 -0.031285886
000040 39 b2 7b 3c 1b 7b b9 3c 7d 41 85 3d 67 53 93 3d
       0.015362316 0.02264171 0.065066315 0.07193642
000050 88 25 94 3d 69 83 d4 3d 76 90 91 bd 4e 33 cb 3d
       0.07233721 0.10376627 -0.07107632 0.09921895
000060 c1 72 ba 3d ce 9a a9 bd aa d9 94 bd 3f db d5 bd
       0.09103919 -0.0828148 -0.072680786 -0.104422085
000070 c8 90 c8 bd 19 9b 82 bb 18 dc 94 3d 4f 94 90 3d
       -0.0979324 -0.0039857742 0.07268542 0.070595376
000080 2c 0a 87 3d e3 5a 8d 3d f0 57 a2 bc 0b af 93 3d
       0.06593737 0.06902101 -0.019817322 0.07211121
000090 a3 32 da bb 00 90 75 bd eb ea d6 bd 33 11 73 3d
       -0.0066588684 -0.059951782 -0.10494026 0.059342574
0000a0 2d 00 b3 bd 8c 14 97 bd 4e 2f cd bd 12 4f 68 3d
       -0.08740268 -0.07376966 -0.10018788 0.056716032
0000b0 da c5 90 3d 72 5d 8a bc c0 da ec 3b 64 8a 9d bc
       0.07068987 -0.016890261 0.0072282255 -0.019231029
0000c0 70 bd d3 3c ef 78 d9 bd 8f 0b c5 bd cb 73 ad bd
       0.025847167 -0.106187694 -0.09621345 -0.084693514
0000d0 a5 ba 75 3d f1 bd 40 bc 44 29 c7 bd 38 56 32 bc
       0.05999245 -0.011764036 -0.09724668 -0.010884814
0000e0 08 1a b2 bd 68 d1 ef bd 93 48 e9 bd e2 da 7f bd
       -0.08696371 -0.11709863 -0.113907956 -0.062464602
0000f0 41 af c7 bc 86 b3 91 3d 2e 77 38 bc 6d ff a7 bd
       -0.02437556 0.071143195 -0.011258883 -0.082030155
000100 45 99 cb 3d ab 3f ca 3c 12 94 e8 3d 6c af 14 3b
       0.09941343 0.024688562 0.11356367 0.0022687567
000110 65 d4 f5 3d e5 5e 48 bd 57 b4 e8 3d 19 ea 67 bd
       0.12003402 -0.048918623 0.11362522 -0.056619737
000120 80 d4 d7 3d 9c d8 10 3d f5 b6 d2 bd c3 d5 bf bd
       0.10538578 0.035362825 -0.102888025 -0.09366944
000130 d9 50 a7 ba 2a 74 b2 3c 25 da 70 bd fe 39 39 bd
       -0.0012765183 0.021783907 -0.05880179 -0.04522132
000140 e2 26 6d 3d 41 7c 94 3d a4 b7 89 3c 5a 7e aa 3d
       0.05789841 0.07250262 0.0168112 0.08324881
000150 46 13 f5 bb f7 29 2b 3d ac 18 90 bc b8 c2 ee bc
       -0.007479104 0.041788068 -0.01758989 -0.029145584
000160 0b 89 96 bd 79 29 fa bd 89 3e a4 bd ec b1 ab 3b
       -0.073503576 -0.122149415 -0.0801974 0.005239716
000170 c7 ed 90 bc 13 bf b4 bc 8e 24 4a 3d c3 b4 6f 3c
       -0.017691506 -0.022063768 0.049351268 0.014630499
000180 14 89 a2 3d d8 42 a6 bd 24 ab d8 3d 9b d3 bc 3d
       0.07936302 -0.08118218 0.105795175 0.09220048
000190 65 28 ae 3d cf 40 40 bd 35 c9 a2 bd 66 f8 17 bc
       0.085037984 -0.046936806 -0.079485334 -0.009275531
0001a0 75 0a 78 bd fa aa 2e 3d 5d e8 92 3d a3 6c ae bd
       -0.060556848 0.042643525 0.07173226 -0.085168146
0001b0 84 f0 9d bd eb da 15 3d 2f 83 9f 3c 66 53 78 bc
       -0.0771189 0.03658573 0.019471733 -0.0151566025
0001c0 98 92 c0 bd 49 73 36 3d 78 27 ab bc af 2f fc bd
       -0.094029605 0.04454354 -0.020892844 -0.123137824
0001d0 7d 44 b3 bd 59 25 cd bd d8 77 6c bd 18 d7 32 bc
       -0.087532975 -0.10016889 -0.05773148 -0.01091554
0001e0 e5 2a 4f bd 43 46 81 bd 1f 15 17 3d f7 12 82 3d
       -0.050578017 -0.063122295 0.036885377 0.063512735
0001f0 c0 42 01 bc f6 a2 61 3d 8a 09 96 3d a4 af ac bd
       -0.00788945 0.055087052 0.07326038 -0.08431938
000200 a8 c6 3d 3c 34 ec 46 bd a8 89 66 3c ca aa 9f bd
       0.011583008 -0.048565105 0.014070906 -0.07796247
000210 2e 7a 11 bc d2 4e ef bc 35 e0 96 bd 13 60 b6 3d
       -0.008879228 -0.02921239 -0.07366983 0.089050435
000220 c0 bf 47 3c fa a0 09 3d 51 f4 b9 3d c6 2a 39 3d
       0.012191713 0.033600785 0.09079803 0.045206808
000230 d6 bf b4 bd fc 18 81 bd df c4 5e bc 1b fa c7 3d
       -0.08825652 -0.063035935 -0.013596742 0.09764501
000240 a0 62 dc 3d 03 ac 91 3d 04 07 a9 3c f0 8f 75 bd
       0.10760999 0.07112887 0.020633228 -0.059951723
000250 0e e5 86 bc 8e 48 b3 bd 88 e1 ea 3c ba d8 30 3c
       -0.016466644 -0.08754073 0.028671995 0.010793859
000260 3e 99 13 3d 97 6c 92 3d 11 38 1a 3d 6a 64 14 3d
       0.036034815 0.07149618 0.037651125 0.036228575
000270 d8 e2 93 3d e8 10 4f 3d db e3 a5 3d 34 a7 98 bc
       0.072210014 0.050553232 0.081001006 -0.018634416
000280 31 56 51 bd d7 a2 82 3d b0 4f 81 bd 4b d2 66 bd
       -0.05110759 0.063787155 -0.06314027 -0.056352895
000290 8e 5b 92 bd 37 0f 9f 3d 01 04 17 3d a9 ae 89 bc
       -0.07146369 0.07766574 0.036869053 -0.016806917
0002a0 c5 11 1b bd e3 94 82 bd 5c 64 09 bc 1d ba 48 bb
       -0.037858743 -0.06376054 -0.008385744 -0.003062851
0002b0 79 10 91 3b 3d 6f 46 3d e0 28 a1 bd c0 a3 11 bc
       0.0044270125 0.04844593 -0.078691244 -0.008889139
0002c0 13 3e b2 3d 12 c6 30 bd fb c3 bc 3d 23 b5 a1 bd
       0.08703246 -0.043157645 0.09217068 -0.07895877
0002d0 95 98 bc bd 3f f2 ba bd dd 5a 88 bd 9c ec 75 bd
       -0.0920879 -0.09128236 -0.06657956 -0.0600401
0002e0 19 c8 9e bd 6e fc 07 bd 69 92 3a bd ad 45 90 3d
       -0.07753009 -0.03319972 -0.045549784 0.070445396
0002f0 34 9a 6b 3d 51 b9 d0 bc 99 f6 91 bd 48 05 e0 3c
       0.057520106 -0.02547899 -0.07127113 0.027346268
000300 6d 2e cf bd 96 4d a8 3d 90 09 0e bd 3d 22 a7 3d
       -0.10116277 0.08217923 -0.03467709 0.08160827
000310 12 e3 56 3c 30 48 bf bb 92 5f a6 bd f6 58 72 bd
       0.013115661 -0.005837463 -0.08123697 -0.05916687
000320 fb 9f ed bd 4b 94 9d 3d 40 88 05 3d 2a 53 27 bd
       -0.116027795 0.076943 0.03260064 -0.040850796
000330 01 ba 99 3d d8 49 8f 3d 5e af 0a 3d 99 25 7b bc
       0.075061806 0.069965065 0.03385865 -0.015328788
000340 39 ab 8f 3d 4c 51 d1 bd a6 0b c4 bd cc 1f 97 bd
       0.0701508 -0.10220584 -0.09572534 -0.07379112
000350 8f 72 d5 3d 94 f3 4c bd 43 9b 9f 3d 6a 12 4b 3d
       0.10422241 -0.05003698 0.07793286 0.049578108
000360 cd 8b d7 bd 0b 0d 9e 3d 0c 45 76 3d b7 85 33 3d
       -0.10524712 0.077173315 0.060124442 0.043828692
000370 08 5d a6 3d 30 de d5 3c 4f dd 18 bd 61 a7 8e 3d
       0.08123213 0.026106924 -0.03732043 0.06965519
000380 d0 65 03 3d be f1 17 3d f6 3e c3 bd 3f 7f dd bc
       0.032079518 0.037095778 -0.09533493 -0.027038215
000390 dd 60 9c 3d 00 cc 06 3d 3f e3 f4 bc 95 c3 62 bd
       0.07635663 0.032909393 -0.029893516 -0.055362303
0003a0 e7 35 2d bd d5 35 7e 3d d2 46 96 3d fb 13 9b 3d
       -0.042287733 0.062063057 0.07337727 0.0757217
0003b0 00 2b c5 bc 0f d9 10 bd e6 c6 9f bd b9 69 34 bd
       -0.024068356 -0.035363253 -0.07801609 -0.044046137
0003c0 21 62 b6 3d c2 86 76 bc ca cb 0f 3d ee e6 51 bd
       0.08905435 -0.015046777 0.035106458 -0.051245622
0003d0 9e 1e 40 3d 74 7b be ba 98 f2 5e 3d a9 dc a7 3d
       0.0469042 -0.0014532642 0.054430574 0.081963845
0003e0 65 84 61 3d bb 92 8b 3d 4e 41 b8 bd 3f 33 82 3c
       0.055057902 0.06815096 -0.08996831 0.015893577
0003f0 46 73 3c 3d 32 62 db ba 33 23 24 bd 38 10 76 bc
       0.04600837 -0.0016737639 -0.04007263 -0.015018515

advantage_stream.2.bias f4 [3]
000000 23 b7 68 bb 6c 5a 87 3d a3 80 23 bd
       -0.0035509549 0.066090435 -0.0399176
