lstm_predictor_fixed_grid2.pth (torch, 132044 bytes, 9 tensors)

lstm.weight_ih_l0 f4 [200, 7]
0	0x45bb9ace	6003.3506
1	0x45bb9b52	6003.415
2	0x45bb9ad9	6003.356
3	0x45bb9ae9	6003.364
4	0x45bb9ca2	6003.579
5	0x45bb9c27	6003.519
6	0x45bb9abc	6003.342
7	0x45bb9b90	6003.4453
8	0x45bb9b1c	6003.3887
9	0x45bb9c39	6003.528
10	0x45bb9b33	6003.4
11	0x45bb9afd	6003.3735
12	0x45bb9cb4	6003.588
13	0x45bb9c9c	6003.576
14	0x45bb9c30	6003.5234
15	0x45bb9ca7	6003.5815
16	0x45bb9af9	6003.3716
17	0x45bb9c65	6003.5493
18	0x45bb9c9f	6003.5776
19	0x45bb9bc0	6003.4688
20	0x45bb9ac9	6003.348
21	0x45bb9bea	6003.4893
22	0x45bb9b77	6003.433
23	0x45bb9ba0	6003.453
24	0x45bb9c18	6003.5117
25	0x45bb9b60	6003.422
26	0x45bb9ca1	6003.5786
27	0x45bb9bf2	6003.493
28	0x45bb9b3e	6003.4053
29	0x45bb9b24	6003.3926
30	0x45bb9c41	6003.5317
31	0x45bb9aab	6003.3335
32	0x45bb9c6c	6003.5527
33	0x45bb9c4f	6003.5386
34	0x45bb9cb1	6003.5864
35	0xc5bb9b2a	-6003.3955
36	0xc5bb9ab6	-6003.339
37	0xc5bb9b18	-6003.3867
38	0xc5bb9ac7	-6003.347
39	0xc5bb9afc	-6003.373
40	0xc5bb9ad0	-6003.3516
41	0xc5bb9c3d	-6003.53
42	0x45bb9acf	6003.351
43	0x45bb9ccb	6003.599
44	0x45bb9c21	6003.516
45	0x45bb9b11	6003.3833
46	0x45bb9bb1	6003.4614
47	0x45bb9c43	6003.5327
48	0x45bb9b50	6003.414
49	0xc5bb9b36	-6003.4014
50	0xc5bb9b64	-6003.424
51	0xc5bb9cb8	-6003.59
52	0xc5bb9b99	-6003.4497
53	0xc5bb9b0a	-6003.38
54	0xc5bb9ac8	-6003.3477
55	0xc5bb9c2f	-6003.523
56	0x45bb9c23	6003.517
57	0x45bb9ae2	6003.3604
58	0x45bb9aea	6003.3643
59	0x45bb9ae4	6003.3613
60	0x45bb9b4a	6003.411
61	0x45bb9c72	6003.5557
62	0x45bb9c74	6003.5566
63	0xc5bb9aeb	-6003.3647
64	0xc5bb9baf	-6003.4604
65	0xc5bb9b9b	-6003.4507
66	0xc5bb9cd1	-6003.602
67	0xc5bb9c91	-6003.571
68	0xc5bb9ca4	-6003.58
69	0xc5bb9bb7	-6003.4644
70	0x45bb9cda	6003.6064
71	0x45bb9b28	6003.3945
72	0x45bb9b74	6003.4316
73	0x45bb9c85	6003.565
74	0x45bb9caf	6003.5854
75	0x45bb9b53	6003.4155
76	0x45bb9bf6	6003.495
77	0x45bb9c50	6003.539
78	0x45bb9c39	6003.528
79	0x45bb9b66	6003.425
80	0x45bb9c8d	6003.569
81	0x45bb9be8	6003.4883
82	0x45bb9bb2	6003.462
83	0xc5bb9b21	-6003.391
84	0x45bb9ba2	6003.454
85	0x45bb9b51	6003.4146
86	0x45bb9b74	6003.4316
87	0x45bb9b5b	6003.4194
88	0x45bb9c32	6003.5244
89	0x45bb9cd8	6003.6055
90	0x45bb9c7f	6003.562
91	0xc5bb9c10	-6003.508
92	0xc5bb9be8	-6003.4883
93	0xc5bb9ca0	-6003.578
94	0xc5bb9c0a	-6003.505
95	0xc5bb9b44	-6003.408
96	0xc5bb9b83	-6003.439
97	0xc5bb9be4	-6003.4863
98	0x45bb9b2c	6003.3965
99	0x45bb9bc9	6003.473
100	0x45bb9be3	6003.486
101	0x45bb9bec	6003.49
102	0xc5bb9c36	-6003.5264
103	0x45bb9b7e	6003.4365
104	0x45bb9b9e	6003.452
105	0xc5bb9b0d	-6003.3813
106	0xc5bb9ac4	-6003.3457
107	0xc5bb9b59	-6003.4185
108	0xc5bb9c72	-6003.5557
109	0xc5bb9b14	-6003.385
110	0xc5bb9c4b	-6003.5366
111	0xc5bb9abd	-6003.3423
112	0x45bb9bfb	6003.4976
113	0x45bb9adf	6003.359
114	0x45bb9b82	6003.4385
115	0x45bb9c29	6003.52
116	0x45bb9ccb	6003.599
117	0x45bb9b73	6003.431
118	0x45bb9bb9	6003.4653
119	0xc5bb9bd9	-6003.481
120	0xc5bb9c7e	-6003.5615
121	0xc5bb9c29	-6003.52
122	0xc5bb9c27	-6003.519
123	0xc5bb9adf	-6003.359
124	0xc5bb9c3c	-6003.5293
125	0xc5bb9ad8	-6003.3555
126	0x45bb9c1b	6003.513
127	0x45bb9ba0	6003.453
128	0x45bb9aa4	6003.33
129	0x45bb9ac5	6003.346
130	0x45bb9aef	6003.3667
131	0x45bb9acb	6003.349
132	0x45bb9ab8	6003.34
133	0x45bb9b32	6003.3994
134	0x45bb9bfd	6003.4985
135	0x45bb9bb6	6003.464
136	0x45bb9c17	6003.511
137	0x45bb9c52	6003.54
138	0x45bb9bac	6003.459
139	0x45bb9c31	6003.524
140	0xc5bb9b74	-6003.4316
141	0xc5bb9ade	-6003.3584
142	0xc5bb9b04	-6003.377
143	0xc5bb9abc	-6003.342
144	0xc5bb9b47	-6003.4097
145	0xc5bb9caf	-6003.5854
146	0xc5bb9cc6	-6003.5967
147	0xc5bb9c46	-6003.534
148	0xc5bb9b8f	-6003.445
149	0xc5bb9c98	-6003.574
150	0xc5bb9b9b	-6003.4507
151	0xc5bb9c70	-6003.5547
152	0xc5bb9b19	-6003.387
153	0xc5bb9bb9	-6003.4653
154	0xc5bb9bb8	-6003.465
155	0xc5bb9ccb	-6003.599
156	0xc5bb9c83	-6003.564
157	0xc5bb9cd1	-6003.602
158	0xc5bb9c35	-6003.526
159	0xc5bb9b37	-6003.402
160	0xc5bb9cab	-6003.5835
161	0xc5bb9b60	-6003.422
162	0xc5bb9c2c	-6003.5215
163	0xc5bb9c1c	-6003.5137
164	0xc5bb9ab0	-6003.336
165	0xc5bb9bee	-6003.491
166	0xc5bb9c0f	-6003.5073
167	0xc5bb9b3b	-6003.404
168	0xc5bb9c77	-6003.558
169	0xc5bb9bbc	-6003.467
170	0xc5bb9c19	-6003.512
171	0xc5bb9be1	-6003.485
172	0xc5bb9c46	-6003.534
173	0xc5bb9c1c	-6003.5137
174	0xc5bb9aea	-6003.3643
175	0xc5bb9adb	-6003.357
176	0xc5bb9c1c	-6003.5137
177	0xc5bb9b08	-6003.379
178	0xc5bb9be9	-6003.489
179	0xc5bb9c86	-6003.5654
180	0xc5bb9cdd	-6003.608
181	0xc5bb9bf4	-6003.494
182	0x45bb9b09	6003.3794
183	0x45bb9bbd	6003.4673
184	0x45bb9b3d	6003.405
185	0x45bb9ace	6003.3506
186	0x45bb9b39	6003.403
187	0x45bb9c10	6003.508
188	0x45bb9c4e	6003.538
189	0x45bb9ab9	6003.3403
190	0x45bb9bed	6003.4907
191	0x45bb9bf2	6003.493
192	0x45bb9c89	6003.567
193	0x45bb9b37	6003.402
194	0x45bb9bb1	6003.4614
195	0x45bb9c0a	6003.505
196	0xc5bb9c7a	-6003.5596
197	0xc5bb9b5a	-6003.419
198	0xc5bb9ab3	-6003.3374
199	0xc5bb9b21	-6003.391
200	0xc5bb9aab	-6003.3335
201	0xc5bb9c1d	-6003.514
202	0xc5bb9aeb	-6003.3647
203	0xc5bb9b6d	-6003.428
204	0xc5bb9ae5	-6003.362
205	0xc5bb9ac8	-6003.3477
206	0xc5bb9bbf	-6003.4683
207	0xc5bb9ad2	-6003.3525
208	0xc5bb9bf3	-6003.4937
209	0xc5bb9aec	-6003.365
210	0xc5bb9bfb	-6003.4976
211	0xc5bb9cb0	-6003.586
212	0xc5bb9aff	-6003.3745
213	0xc5bb9c47	-6003.5347
214	0xc5bb9ace	-6003.3506
215	0xc5bb9c0c	-6003.506
216	0xc5bb9b6b	-6003.4272
217	0x45bb9b79	6003.434
218	0x45bb9ca6	6003.581
219	0x45bb9b2f	6003.398
220	0x45bb9be4	6003.4863
221	0x45bb9b94	6003.4473
222	0x45bb9b55	6003.4165
223	0x45bb9c5c	6003.545
224	0x45bb9c5d	6003.5454
225	0x45bb9c58	6003.543
226	0x45bb9c53	6003.5405
227	0x45bb9cac	6003.584
228	0x45bb9bca	6003.4736
229	0x45bb9c24	6003.5176
230	0x45bb9ab8	6003.34
231	0xc5bb9b6a	-6003.427
232	0xc5bb9b9e	-6003.452
233	0xc5bb9c6e	-6003.5537
234	0xc5bb9cb4	-6003.588
235	0xc5bb9abc	-6003.342
236	0xc5bb9bbd	-6003.4673
237	0xc5bb9ccc	-6003.5996
238	0x45bb9bc9	6003.473
239	0x45bb9b42	6003.407
240	0x45bb9c04	6003.502
241	0x45bb9adf	6003.359
242	0x45bb9b4f	6003.4136
243	0x45bb9b26	6003.3936
244	0x45bb9bcf	6003.476
245	0xc5bb9c9e	-6003.577
246	0xc5bb9b58	-6003.418
247	0xc5bb9cdc	-6003.6074
248	0xc5bb9afe	-6003.374
249	0xc5bb9b0b	-6003.3804
250	0xc5bb9c3d	-6003.53
251	0xc5bb9cc4	-6003.5957
252	0x45bb9c3f	6003.531
253	0x45bb9c9b	6003.5757
254	0x45bb9bd1	6003.477
255	0x45bb9c24	6003.5176

lstm.weight_hh_l0 f4 [200, 50]
0	0xc5bb9b32	-6003.3994
1	0xc5bb9c2d	-6003.522
2	0x45bb9c3d	6003.53
3	0xc5bb9c6b	-6003.5522
4	0xc5bb9c39	-6003.528
5	0xc5bb9b59	-6003.4185
6	0xc5bb9b0d	-6003.3813
7	0x45bb9aac	6003.334
8	0xc5bb9b4a	-6003.411
9	0xc5bb9b51	-6003.4146
10	0x45bb9bc4	6003.4707
11	0x45bb9ba3	6003.4546
12	0x45bb9c18	6003.5117
13	0xc5bb9b31	-6003.399
14	0x45bb9b3e	6003.4053
15	0x45bb9c20	6003.5156
16	0x45bb9c2b	6003.521
17	0xc5bb9cb0	-6003.586
18	0xc5bb9bc2	-6003.4697
19	0xc5bb9c66	-6003.55
20	0x45bb9acf	6003.351
21	0xc5bb9b70	-6003.4297
22	0x45bb9b5f	6003.4214
23	0xc5bb9b61	-6003.4224
24	0x45bb9bc6	6003.4717
25	0x45bb9bde	6003.4834
26	0x45bb9b7f	6003.437
27	0xc5bb9bf1	-6003.4927
28	0xc5bb9c4e	-6003.538
29	0xc5bb9ac0	-6003.3438
30	0x45bb9ccf	6003.601
31	0x45bb9c7f	6003.562
32	0x45bb9c71	6003.555
33	0xc5bb9ad2	-6003.3525
34	0xc5bb9b80	-6003.4375
35	0xc5bb9ac7	-6003.347
36	0xc5bb9cac	-6003.584
37	0xc5bb9aee	-6003.366
38	0xc5bb9bff	-6003.4995
39	0xc5bb9b98	-6003.449
40	0x45bb9bf4	6003.494
41	0xc5bb9b66	-6003.425
42	0xc5bb9c2b	-6003.521
43	0xc5bb9ba2	-6003.454
44	0x45bb9abc	6003.342
45	0x45bb9abe	6003.343
46	0xc5bb9bbd	-6003.4673
47	0xc5bb9ad4	-6003.3535
48	0x45bb9b41	6003.4067
49	0xc5bb9cba	-6003.591
50	0xc5bb9ae9	-6003.364
51	0xc5bb9cb7	-6003.5894
52	0x45bb9c39	6003.528
53	0xc5bb9c0d	-6003.5063
54	0xc5bb9bf3	-6003.4937
55	0xc5bb9b24	-6003.3926
56	0xc5bb9cd6	-6003.6045
57	0x45bb9bd3	6003.478
58	0xc5bb9caf	-6003.5854
59	0xc5bb9cc4	-6003.5957
60	0x45bb9ae3	6003.361
61	0x45bb9cd3	6003.603
62	0x45bb9b10	6003.383
63	0xc5bb9c70	-6003.5547
64	0x45bb9c39	6003.528
65	0x45bb9c62	6003.548
66	0x45bb9bcd	6003.475
67	0xc5bb9c06	-6003.503
68	0xc5bb9b90	-6003.4453
69	0xc5bb9ab2	-6003.337
70	0x45bb9ada	6003.3564
71	0xc5bb9c24	-6003.5176
72	0x45bb9ad3	6003.353
73	0xc5bb9c48	-6003.535
74	0x45bb9c3a	6003.5283
75	0x45bb9c49	6003.5356
76	0x45bb9c14	6003.51
77	0xc5bb9add	-6003.358
78	0xc5bb9c88	-6003.5664
79	0xc5bb9c60	-6003.547
80	0x45bb9afe	6003.374
81	0x45bb9b01	6003.3755
82	0x45bb9b7e	6003.4365
83	0xc5bb9be2	-6003.4854
84	0xc5bb9ac2	-6003.3447
85	0xc5bb9c2c	-6003.5215
86	0xc5bb9aab	-6003.3335
87	0xc5bb9b90	-6003.4453
88	0xc5bb9cc2	-6003.5947
89	0xc5bb9b3a	-6003.4033
90	0x45bb9bc3	6003.47
91	0xc5bb9cbc	-6003.592
92	0xc5bb9cd0	-6003.6016
93	0xc5bb9ccf	-6003.601
94	0x45bb9ac9	6003.348
95	0x45bb9aa1	6003.3286
96	0xc5bb9c77	-6003.558
97	0xc5bb9cd9	-6003.606
98	0x45bb9af7	6003.3706
99	0xc5bb9b4d	-6003.4126
100	0xc5bb9c18	-6003.5117
101	0xc5bb9ca7	-6003.5815
102	0x45bb9b3f	6003.406
103	0xc5bb9c02	-6003.501
104	0xc5bb9cb4	-6003.588
105	0xc5bb9c3a	-6003.5283
106	0xc5bb9b1d	-6003.389
107	0x45bb9bcd	6003.475
108	0xc5bb9b7a	-6003.4346
109	0xc5bb9acd	-6003.35
110	0x45bb9c78	6003.5586
111	0x45bb9b4c	6003.412
112	0x45bb9b95	6003.4478
113	0xc5bb9b2c	-6003.3965
114	0x45bb9b98	6003.449
115	0x45bb9bbe	6003.468
116	0x45bb9aa6	6003.331
117	0xc5bb9bb6	-6003.464
118	0xc5bb9afc	-6003.373
119	0xc5bb9b68	-6003.426
120	0x45bb9c1c	6003.5137
121	0xc5bb9bbf	-6003.4683
122	0x45bb9c95	6003.5728
123	0xc5bb9ab7	-6003.3394
124	0x45bb9b56	6003.417
125	0x45bb9b79	6003.434
126	0x45bb9be0	6003.4844
127	0xc5bb9b61	-6003.4224
128	0xc5bb9c43	-6003.5327
129	0xc5bb9baf	-6003.4604
130	0x45bb9af3	6003.3687
131	0x45bb9ad6	6003.3545
132	0x45bb9b8e	6003.4443
133	0xc5bb9abf	-6003.3433
134	0xc5bb9c40	-6003.5312
135	0xc5bb9aab	-6003.3335
136	0xc5bb9c7b	-6003.56
137	0xc5bb9bd0	-6003.4766
138	0xc5bb9adc	-6003.3574
139	0xc5bb9b44	-6003.408
140	0x45bb9aec	6003.365
141	0xc5bb9b65	-6003.4243
142	0xc5bb9afb	-6003.3726
143	0xc5bb9c86	-6003.5654
144	0x45bb9cb4	6003.588
145	0xc5bb9aaf	-6003.3354
146	0xc5bb9c2d	-6003.522
147	0xc5bb9bbc	-6003.467
148	0x45bb9af2	6003.368
149	0xc5bb9b59	-6003.4185
150	0xc5bb9c69	-6003.5513
151	0xc5bb9c02	-6003.501
152	0x45bb9c90	6003.5703
153	0xc5bb9aef	-6003.3667
154	0xc5bb9b7c	-6003.4355
155	0xc5bb9be3	-6003.486
156	0xc5bb9c5c	-6003.545
157	0x45bb9bf6	6003.495
158	0xc5bb9c10	-6003.508
159	0xc5bb9ae3	-6003.361
160	0x45bb9c64	6003.549
161	0x45bb9bc9	6003.473
162	0x45bb9cd0	6003.6016
163	0xc5bb9b26	-6003.3936
164	0xc5bb9757	-6002.9175
165	0x45bb9c44	6003.533
166	0x45bb9bcb	6003.474
167	0xc5bb9b23	-6003.392
168	0xc5bb9c0c	-6003.506
169	0xc5bb9bff	-6003.4995
170	0x45bb9b62	6003.423
171	0xc5bb9c08	-6003.504
172	0x45bb9ab7	6003.3394
173	0xc5bb9b6a	-6003.427
174	0x45bb9cb1	6003.5864
175	0x45bb9cd2	6003.6025
176	0x45bb9aff	6003.3745
177	0xc5bb9c4e	-6003.538
178	0xc5bb9bdf	-6003.484
179	0xc5bb9b00	-6003.375
180	0x45bb9c9c	6003.576
181	0x45bb9aca	6003.3486
182	0x45bb9c91	6003.571
183	0xc5bb9af1	-6003.3677
184	0xc5bb9ba3	-6003.4546
185	0xc5bb9c0c	-6003.506
186	0xc5bb9bcf	-6003.476
187	0xc5bb9c01	-6003.5005
188	0xc5bb9c7f	-6003.562
189	0xc5bb9b8d	-6003.444
190	0xc5bb9c8c	-6003.5684
191	0xc5bb9c49	-6003.5356
192	0xc5bb9ccb	-6003.599
193	0xc5bb9b3c	-6003.4043
194	0x45bb9ca8	6003.582
195	0x45bb9cab	6003.5835
196	0xc5bb9b3b	-6003.404
197	0xc5bb9c2f	-6003.523
198	0x45bb9c67	6003.5503
199	0xc5bb9b8d	-6003.444
200	0xc5bb9b30	-6003.3984
201	0xc5bb9b2e	-6003.3975
202	0x45bb9c3e	6003.5303
203	0xc5bb9b92	-6003.4463
204	0xc5bb9b26	-6003.3936
205	0xc5bb9c2a	-6003.5205
206	0xc5bb9b85	-6003.44
207	0x45bb9c7b	6003.56
208	0xc5bb9aac	-6003.334
209	0xc5bb9adf	-6003.359
210	0x45bb9c07	6003.5034
211	0x45bb9c88	6003.5664
212	0x45bb9aed	6003.3657
213	0xc5bb9ad1	-6003.352
214	0x45bb9bde	6003.4834
215	0x45bb9cd7	6003.605
216	0x45bb9c6f	6003.554
217	0xc5bb9af2	-6003.368
218	0xc5bb9cac	-6003.584
219	0xc5bb9b56	-6003.417
220	0x45bb9ab2	6003.337
221	0xc5bb9c36	-6003.5264
222	0x45bb9c74	6003.5566
223	0xc5bb9aa6	-6003.331
224	0x45bb9b96	6003.448
225	0x45bb9c3e	6003.5303
226	0x45bb9c95	6003.5728
227	0xc5bb9cbc	-6003.592
228	0xc5bb9c21	-6003.516
229	0xc5bb9b20	-6003.3906
230	0x45bb9b96	6003.448
231	0x45bb9c7a	6003.5596
232	0x45bb9b61	6003.4224
233	0xc5bb9c51	-6003.5396
234	0xc5bb9ab8	-6003.34
235	0xc5bb9bd1	-6003.477
236	0xc5bb9af4	-6003.369
237	0xc5bb9cb6	-6003.589
238	0xc5bb9c90	-6003.5703
239	0xc5bb9ad5	-6003.354
240	0x45bb9aaf	6003.3354
241	0xc5bb9ab1	-6003.3364
242	0xc5bb9be4	-6003.4863
243	0xc5bb9bef	-6003.4917
244	0x45bb9b33	6003.4
245	0x45bb9cdc	6003.6074
246	0xc5bb9b32	-6003.3994
247	0xc5bb9a9d	-6003.3267
248	0x45bb9c67	6003.5503
249	0xc5bb9ad3	-6003.353
250	0x45bb9cba	6003.591
251	0x45bb9ac7	6003.347
252	0xc5bb9b8d	-6003.444
253	0x45bb9ac3	6003.345
254	0x45bb9ada	6003.3564
255	0x45bb9b6f	6003.429

lstm.bias_ih_l0 f4 [200]
0	0x45bb9c1d	6003.514
1	0x45bb9b10	6003.383
2	0x45bb9b9b	6003.4507
3	0x45bb9b70	6003.4297
4	0x45bb9bd6	6003.4795
5	0xc5bb9b7d	-6003.436
6	0x45bb9bf3	6003.4937
7	0xc5bb9ca6	-6003.581
8	0x45bb9b91	6003.446
9	0xc5bb9c4f	-6003.5386
10	0x45bb9c1c	6003.5137
11	0x45bb9c3b	6003.529
12	0x45bb9c7b	6003.56
13	0xc5bb9bce	-6003.4756
14	0x45bb9c67	6003.5503
15	0xc5bb9b89	-6003.442
16	0x45bb9b05	6003.3774
17	0xc5bb9bed	-6003.4907
18	0x45bb9c24	6003.5176
19	0x45bb9ba4	6003.455
20	0xc5bb9bb9	-6003.4653
21	0xc5bb9b31	-6003.399
22	0xc5bb9bbe	-6003.468
23	0xc5bb9ad2	-6003.3525
24	0xc5bb9bf5	-6003.4946
25	0xc5bb9b84	-6003.4395
26	0x45bb9c7a	6003.5596
27	0x45bb9bff	6003.4995
28	0xc5bb9ab0	-6003.336
29	0xc5bb9c29	-6003.52
30	0xc5bb9b88	-6003.4414
31	0x45bb9bf9	6003.4966
32	0x45bb9b56	6003.417
33	0xc5bb9b24	-6003.3926
34	0x45bb9aad	6003.3345
35	0xc5bb9b99	-6003.4497
36	0x45bb9cb1	6003.5864
37	0xc5bb9c68	-6003.551
38	0xc5bb9c4e	-6003.538
39	0x45bb9ac9	6003.348
40	0x45bb9c4f	6003.5386
41	0xc5bb9b85	-6003.44
42	0xc5bb9ae9	-6003.364
43	0x45bb9b7f	6003.437
44	0xc5bb9aff	-6003.3745
45	0x45bb9c80	6003.5625
46	0xc5bb9c3c	-6003.5293
47	0xc5bb9b06	-6003.378
48	0x45bb9cae	6003.585
49	0xc5bb9adb	-6003.357
50	0x45bb9b45	6003.4087
51	0x45bb9af7	6003.3706
52	0x45bb9bc3	6003.47
53	0x45bb9c33	6003.525
54	0x45bb9b6f	6003.429
55	0xc5bb9be5	-6003.487
56	0x45bb9bd8	6003.4805
57	0xc5bb9af4	-6003.369
58	0x45bb9bbb	6003.4663
59	0xc5bb9cb5	-6003.5884
60	0x45bb9cbf	6003.5933
61	0x45bb9b17	6003.386
62	0x45bb9af5	6003.3696
63	0xc5bb9b26	-6003.3936
64	0x45bb9b4e	6003.413
65	0xc5bb9cb9	-6003.5903
66	0x45bb9b68	6003.426
67	0xc5bb9c5c	-6003.545
68	0x45bb9c80	6003.5625
69	0x45bb9c9e	6003.577
70	0xc5bb9be8	-6003.4883
71	0xc5bb9b3c	-6003.4043
72	0xc5bb9af5	-6003.3696
73	0xc5bb9b5a	-6003.419
74	0xc5bb9ad8	-6003.3555
75	0xc5bb9b6e	-6003.4287
76	0x45bb9c00	6003.5
77	0x45bb9c07	6003.5034
78	0xc5bb9b31	-6003.399
79	0xc5bb9c7e	-6003.5615
80	0xc5bb9bcb	-6003.474
81	0x45bb9c42	6003.532
82	0x45bb9caf	6003.5854
83	0xc5bb9c3c	-6003.5293
84	0x45bb9c56	6003.542
85	0xc5bb9bd0	-6003.4766
86	0x45bb9b39	6003.403
87	0xc5bb9b18	-6003.3867
88	0xc5bb9ac4	-6003.3457
89	0x45bb9c97	6003.5737
90	0x45bb9aed	6003.3657
91	0xc5bb9ac7	-6003.347
92	0xc5bb9c6d	-6003.553
93	0x45bb9b35	6003.401
94	0xc5bb9cd3	-6003.603
95	0x45bb9ab3	6003.3374
96	0xc5bb9ca9	-6003.5825
97	0xc5bb9ba7	-6003.4565
98	0x45bb9c2f	6003.523
99	0xc5bb9ccf	-6003.601
100	0xc5bb9cd3	-6003.603
101	0xc5bb9c79	-6003.559
102	0x45bb9aa2	6003.329
103	0xc5bb9b60	-6003.422
104	0xc5bb9cc5	-6003.596
105	0x45bb9bc8	6003.4727
106	0xc5bb9bdf	-6003.484
107	0xc5bb9b5e	-6003.421
108	0xc5bb9ae7	-6003.363
109	0x45bb9aca	6003.3486
110	0x45bb9cd2	6003.6025
111	0x45bb9bc3	6003.47
112	0x45bb9be8	6003.4883
113	0x45bb9bd7	6003.48
114	0x45bb9b3d	6003.405
115	0xc5bb9b7d	-6003.436
116	0xc5bb9c4b	-6003.5366
117	0x45bb9b6e	6003.4287
118	0xc5bb9bc9	-6003.473
119	0xc5bb9bc1	-6003.469
120	0xc5bb9b9e	-6003.452
121	0x45bb9b42	6003.407
122	0xc5bb9b00	-6003.375
123	0x45bb9adc	6003.3574
124	0xc5bb9bd0	-6003.4766
125	0xc5bb9b6c	-6003.4277
126	0x45bb9b40	6003.4062
127	0xc5bb9c7f	-6003.562
128	0x45bb9bab	6003.4585
129	0x45bb9bf2	6003.493
130	0xc5bb9aa7	-6003.3315
131	0x45bb9c8d	6003.569
132	0x45bb9abb	6003.3413
133	0x45bb9c28	6003.5195
134	0xc5bb9c7a	-6003.5596
135	0x45bb9afb	6003.3726
136	0xc5bb9b4a	-6003.411
137	0x45bb9ae2	6003.3604
138	0x45bb9cda	6003.6064
139	0xc5bb9b3d	-6003.405
140	0x45bb9c29	6003.52
141	0x45bb9ac2	6003.3447
142	0x45bb9c2a	6003.5205
143	0xc5bb9b6b	-6003.4272
144	0xc5bb9b31	-6003.399
145	0x45bb9ca4	6003.58
146	0x45bb9ab4	6003.338
147	0x45bb9aaf	6003.3354
148	0x45bb9c61	6003.5474
149	0x45bb9ac9	6003.348
150	0x45bb9afc	6003.373
151	0x45bb9ac3	6003.345
152	0x45bb9bee	6003.491
153	0x45bb9a9f	6003.3276
154	0x45bb9ac3	6003.345
155	0xc5bb9bbd	-6003.4673
156	0x45bb9ab0	6003.336
157	0xc5bb9b13	-6003.3843
158	0x45bb9b7a	6003.4346
159	0xc5bb9cce	-6003.6006
160	0x45bb9c2b	6003.521
161	0x45bb9c37	6003.527
162	0x45bb9c86	6003.5654
163	0xc5bb9c14	-6003.51
164	0x45bb9b33	6003.4
165	0xc5bb9bc2	-6003.4697
166	0x45bb9ac7	6003.347
167	0xc5bb9b25	-6003.393
168	0x45bb9bc0	6003.4688
169	0x45bb9c5b	6003.5444
170	0xc5bb9c50	-6003.539
171	0xc5bb9cd8	-6003.6055
172	0xc5bb9c9d	-6003.5767
173	0xc5bb9ae8	-6003.3633
174	0xc5bb9aeb	-6003.3647
175	0xc5bb9c98	-6003.574
176	0x45bb9c40	6003.5312
177	0x45bb9aec	6003.365
178	0xc5bb9c5f	-6003.5464
179	0xc5bb9b6e	-6003.4287
180	0xc5bb9bef	-6003.4917
181	0x45bb9c79	6003.559
182	0x45bb9c93	6003.572
183	0xc5bb9ab8	-6003.34
184	0x45bb9b3f	6003.406
185	0xc5bb9b5d	-6003.4204
186	0x45bb9c34	6003.5254
187	0xc5bb9ae1	-6003.36
188	0xc5bb9c97	-6003.5737
189	0x45bb9c9e	6003.577
190	0x45bb9c2b	6003.521
191	0xc5bb9bda	-6003.4814
192	0xc5bb9b14	-6003.385
193	0x45bb9c2a	6003.5205
194	0xc5bb9bb1	-6003.4614
195	0x45bb9bff	6003.4995
196	0xc5bb9b39	-6003.403
197	0xc5bb9b6a	-6003.427
198	0x45bb9aff	6003.3745
199	0xc5bb9b9e	-6003.452

lstm.bias_hh_l0 f4 [200]
0	0x45bb9cc4	6003.5957
1	0x45bb9b3f	6003.406
2	0x45bb9b7a	6003.4346
3	0x45bb9bde	6003.4834
4	0x45bb9c03	6003.5015
5	0xc5bb9b27	-6003.394
6	0x45bb9b5c	6003.42
7	0xc5bb9c06	-6003.503
8	0x45bb9cdc	6003.6074
9	0xc5bb9aa9	-6003.3325
10	0x45bb9b32	6003.3994
11	0x45bb9aad	6003.3345
12	0x45bb9b5c	6003.42
13	0xc5bb9c47	-6003.5347
14	0x45bb9c9c	6003.576
15	0xc5bb9b25	-6003.393
16	0x45bb9cb4	6003.588
17	0xc5bb9cb2	-6003.587
18	0x45bb9b1b	6003.388
19	0x45bb9ae2	6003.3604
20	0xc5bb9ac7	-6003.347
21	0xc5bb9c2e	-6003.5225
22	0xc5bb9ca9	-6003.5825
23	0xc5bb9abb	-6003.3413
24	0xc5bb9bcb	-6003.474
25	0xc5bb9b26	-6003.3936
26	0x45bb9cc8	6003.5977
27	0x45bb9c30	6003.5234
28	0xc5bb9baa	-6003.458
29	0xc5bb9cbf	-6003.5933
30	0xc5bb9c45	-6003.5337
31	0x45bb9bb2	6003.462
32	0x45bb9b6d	6003.428
33	0xc5bb9aba	-6003.341
34	0x45bb9b2f	6003.398
35	0xc5bb9b50	-6003.414
36	0x45bb9bd4	6003.4785
37	0xc5bb9b31	-6003.399
38	0xc5bb9aa0	-6003.328
39	0x45bb9b3f	6003.406
40	0x45bb9b9c	6003.451
41	0xc5bb9c29	-6003.52
42	0xc5bb9c30	-6003.5234
43	0x45bb9b7a	6003.4346
44	0xc5bb9aa5	-6003.3306
45	0x45bb9b66	6003.425
46	0xc5bb9ac4	-6003.3457
47	0xc5bb9b05	-6003.3774
48	0x45bb9a9e	6003.327
49	0xc5bb9af1	-6003.3677
50	0x45bb9c80	6003.5625
51	0x45bb9cbc	6003.592
52	0x45bb9b83	6003.439
53	0x45bb9c12	6003.509
54	0x45bb9bf8	6003.496
55	0xc5bb9c19	-6003.512
56	0x45bb9abd	6003.3423
57	0xc5bb9be1	-6003.485
58	0x45bb9c07	6003.5034
59	0xc5bb9c0e	-6003.507
60	0x45bb9c2f	6003.523
61	0x45bb9b6d	6003.428
62	0x45bb9adb	6003.357
63	0xc5bb9c4e	-6003.538
64	0x45bb9c58	6003.543
65	0xc5bb9cae	-6003.585
66	0x45bb9ae8	6003.3633
67	0xc5bb9c82	-6003.5635
68	0x45bb9b12	6003.384
69	0x45bb9b4b	6003.4116
70	0xc5bb9b91	-6003.446
71	0xc5bb9c58	-6003.543
72	0xc5bb9c21	-6003.516
73	0xc5bb9c05	-6003.5024
74	0xc5bb9b28	-6003.3945
75	0xc5bb9b58	-6003.418
76	0x45bb9b65	6003.4243
77	0x45bb9bed	6003.4907
78	0xc5bb9ba8	-6003.457
79	0xc5bb9c15	-6003.5103
80	0xc5bb9c1b	-6003.513
81	0x45bb9c52	6003.54
82	0x45bb9c04	6003.502
83	0xc5bb9cc0	-6003.5938
84	0x45bb9c94	6003.5723
85	0xc5bb9c0d	-6003.5063
86	0x45bb9c95	6003.5728
87	0xc5bb9cb7	-6003.5894
88	0xc5bb9bbf	-6003.4683
89	0x45bb9b1f	6003.39
90	0x45bb9bc1	6003.469
91	0xc5bb9bff	-6003.4995
92	0xc5bb9b2e	-6003.3975
93	0x45bb9a9a	6003.325
94	0xc5bb9b2c	-6003.3965
95	0x45bb9b16	6003.3857
96	0xc5bb9ae3	-6003.361
97	0xc5bb9bb0	-6003.461
98	0x45bb9bff	6003.4995
99	0xc5bb9c37	-6003.527
100	0xc5bb9cb6	-6003.589
101	0xc5bb9cb0	-6003.586
102	0x45bb9c88	6003.5664
103	0xc5bb9cc1	-6003.594
104	0xc5bb9be4	-6003.4863
105	0x45bb9b6a	6003.427
106	0xc5bb9ba4	-6003.455
107	0xc5bb9b6a	-6003.427
108	0xc5bb9baa	-6003.458
109	0x45bb9bb8	6003.465
110	0x45bb9b6a	6003.427
111	0x45bb9ac5	6003.346
112	0x45bb9cb5	6003.5884
113	0x45bb9bbe	6003.468
114	0x45bb9aee	6003.366
115	0xc5bb9b95	-6003.4478
116	0xc5bb9afe	-6003.374
117	0x45bb9bb5	6003.4634
118	0xc5bb9c47	-6003.5347
119	0xc5bb9cbe	-6003.593
120	0xc5bb9bd2	-6003.4775
121	0x45bb9bc2	6003.4697
122	0xc5bb9b95	-6003.4478
123	0x45bb9b1d	6003.389
124	0xc5bb9b7d	-6003.436
125	0xc5bb9cb5	-6003.5884
126	0x45bb9ca4	6003.58
127	0xc5bb9bbb	-6003.4663
128	0x45bb9c22	6003.5166
129	0x45bb9ac2	6003.3447
130	0xc5bb9ad2	-6003.3525
131	0x45bb9b14	6003.385
132	0x45bb9cdb	6003.607
133	0x45bb9b08	6003.379
134	0xc5bb9b4d	-6003.4126
135	0x45bb9bf6	6003.495
136	0xc5bb9c1f	-6003.515
137	0x45bb9ae9	6003.364
138	0x45bb9ac2	6003.3447
139	0xc5bb9ccc	-6003.5996
140	0x45bb9b03	6003.3765
141	0x45bb9b9b	6003.4507
142	0x45bb9acf	6003.351
143	0xc5bb9b4b	-6003.4116
144	0xc5bb9c1d	-6003.514
145	0x45bb9c3d	6003.53
146	0x45bb9c0b	6003.5054
147	0x45bb9c4e	6003.538
148	0x45bb9c5b	6003.5444
149	0x45bb9cbd	6003.5923
150	0x45bb9c02	6003.501
151	0x45bb9a9b	6003.3257
152	0x45bb9cd1	6003.602
153	0x45bb9b15	6003.3853
154	0x45bb9b39	6003.403
155	0xc5bb9c10	-6003.508
156	0x45bb9b2c	6003.3965
157	0xc5bb9b98	-6003.449
158	0x45bb9ca9	6003.5825
159	0xc5bb9bc3	-6003.47
160	0x45bb9ba0	6003.453
161	0x45bb9b7d	6003.436
162	0x45bb9cbf	6003.5933
163	0xc5bb9ca2	-6003.579
164	0x45bb9ca7	6003.5815
165	0xc5bb9be6	-6003.4873
166	0x45bb9c8d	6003.569
167	0xc5bb9c9e	-6003.577
168	0x45bb9bad	6003.4595
169	0x45bb9ab3	6003.3374
170	0xc5bb9bcb	-6003.474
171	0xc5bb9c63	-6003.5483
172	0xc5bb9bef	-6003.4917
173	0xc5bb9b4b	-6003.4116
174	0xc5bb9b87	-6003.441
175	0xc5bb9afa	-6003.372
176	0x45bb9c49	6003.5356
177	0x45bb9c2d	6003.522
178	0xc5bb9b98	-6003.449
179	0xc5bb9bb2	-6003.462
180	0xc5bb9c99	-6003.5747
181	0x45bb9bd0	6003.4766
182	0x45bb9c26	6003.5186
183	0xc5bb9c7f	-6003.562
184	0x45bb9b18	6003.3867
185	0xc5bb9b55	-6003.4165
186	0x45bb9b92	6003.4463
187	0xc5bb9b59	-6003.4185
188	0xc5bb9ab4	-6003.338
189	0x45bb9a9d	6003.3267
190	0x45bb9b0a	6003.38
191	0xc5bb9b69	-6003.4263
192	0xc5bb9be5	-6003.487
193	0x45bb9ca7	6003.5815
194	0xc5bb9aea	-6003.3643
195	0x45bb9b1b	6003.388
196	0xc5bb9cab	-6003.5835
197	0xc5bb9c2a	-6003.5205
198	0x45bb9a9e	6003.327
199	0xc5bb9aab	-6003.3335

lstm.weight_ih_l1 f4 [200, 50]
0	0xc5bb9bf0	-6003.492
1	0xc5bb9ae0	-6003.3594
2	0x45bb9a9e	6003.327
3	0xc5bb9bfb	-6003.4976
4	0xc5bb9cb6	-6003.589
5	0xc5bb9bc3	-6003.47
6	0xc5bb9af5	-6003.3696
7	0x45bb9b50	6003.414
8	0xc5bb9b3c	-6003.4043
9	0xc5bb9bdf	-6003.484
10	0x45bb9b92	6003.4463
11	0x45bb9c91	6003.571
12	0x45bb9af5	6003.3696
13	0xc5bb9c02	-6003.501
14	0x45bb9ca7	6003.5815
15	0x45bb9c05	6003.5024
16	0x45bb9c74	6003.5566
17	0xc5bb9c11	-6003.5083
18	0xc5bb9c6c	-6003.5527
19	0xc5bb9cb1	-6003.5864
20	0x45bb9c5a	6003.544
21	0xc5bb9c20	-6003.5156
22	0x45bb9b9c	6003.451
23	0xc5bb9bc5	-6003.471
24	0x45bb9bbb	6003.4663
25	0x45bb9b0b	6003.3804
26	0x45bb9cdb	6003.607
27	0xc5bb9b07	-6003.3784
28	0xc5bb9c92	-6003.5713
29	0xc5bb9cba	-6003.591
30	0x45bb9ab1	6003.3364
31	0x45bb9aa7	6003.3315
32	0x45bb9adf	6003.359
33	0xc5bb9c01	-6003.5005
34	0xc5bb9aad	-6003.3345
35	0xc5bb9bc4	-6003.4707
36	0xc5bb9b24	-6003.3926
37	0xc5bb9b2e	-6003.3975
38	0xc5bb9ba0	-6003.453
39	0xc5bb9b9b	-6003.4507
40	0x45bb9c9f	6003.5776
41	0xc5bb9cb4	-6003.588
42	0xc5bb9ab2	-6003.337
43	0xc5bb9cb1	-6003.5864
44	0x45bb9b26	6003.3936
45	0x45bb9abb	6003.3413
46	0xc5bb9cab	-6003.5835
47	0xc5bb9b14	-6003.385
48	0x45bb9cb4	6003.588
49	0xc5bb9af6	-6003.37
50	0xc5bb9c45	-6003.5337
51	0xc5bb9b95	-6003.4478
52	0x45bb9baa	6003.458
53	0xc5bb9baa	-6003.458
54	0xc5bb9aef	-6003.3667
55	0xc5bb9b24	-6003.3926
56	0xc5bb9c8f	-6003.57
57	0x45bb9c8e	6003.5693
58	0xc5bb9b33	-6003.4
59	0xc5bb9b0a	-6003.38
60	0x45bb9afb	6003.3726
61	0x45bb9b27	6003.394
62	0x45bb9c7e	6003.5615
63	0xc5bb9c51	-6003.5396
64	0x45bb9b3f	6003.406
65	0x45bb9bcb	6003.474
66	0x45bb9bdf	6003.484
67	0xc5bb9cd6	-6003.6045
68	0xc5bb9b08	-6003.379
69	0xc5bb9b3d	-6003.405
70	0x45bb9c93	6003.572
71	0xc5bb9b2f	-6003.398
72	0x45bb9b49	6003.4106
73	0xc5bb9c65	-6003.5493
74	0x45bb9b41	6003.4067
75	0x45bb9b1d	6003.389
76	0x45bb9bb2	6003.462
77	0xc5bb9aa9	-6003.3325
78	0xc5bb9aab	-6003.3335
79	0xc5bb9c3b	-6003.529
80	0x45bb9c74	6003.5566
81	0x45bb9aed	6003.3657
82	0x45bb9af8	6003.371
83	0xc5bb9ae0	-6003.3594
84	0xc5bb9ac2	-6003.3447
85	0xc5bb9b91	-6003.446
86	0xc5bb9cbd	-6003.5923
87	0xc5bb9b1b	-6003.388
88	0xc5bb9b60	-6003.422
89	0xc5bb9b4d	-6003.4126
90	0x45bb9b86	6003.4404
91	0xc5bb9b7c	-6003.4355
92	0xc5bb9b87	-6003.441
93	0xc5bb9c78	-6003.5586
94	0x45bb9cd8	6003.6055
95	0x45bb9c0b	6003.5054
96	0xc5bb9bcd	-6003.475
97	0xc5bb9ace	-6003.3506
98	0x45bb9c64	6003.549
99	0xc5bb9c3f	-6003.531
100	0xc5bb9c7d	-6003.561
101	0xc5bb9b6a	-6003.427
102	0x45bb9c3c	6003.5293
103	0xc5bb9ad0	-6003.3516
104	0xc5bb9b76	-6003.4326
105	0xc5bb9c21	-6003.516
106	0xc5bb9adb	-6003.357
107	0x45bb9c76	6003.5576
108	0xc5bb9b98	-6003.449
109	0xc5bb9c07	-6003.5034
110	0x45bb9afb	6003.3726
111	0x45bb9b7d	6003.436
112	0x45bb9be4	6003.4863
113	0xc5bb9ac4	-6003.3457
114	0x45bb9c41	6003.5317
115	0x45bb9ab8	6003.34
116	0x45bb9cd7	6003.605
117	0xc5bb9b8c	-6003.4434
118	0xc5bb9cb9	-6003.5903
119	0xc5bb9b41	-6003.4067
120	0x45bb9b3b	6003.404
121	0xc5bb9bd8	-6003.4805
122	0x45bb9ba7	6003.4565
123	0xc5bb9b34	-6003.4004
124	0x45bb9b76	6003.4326
125	0x45bb9c37	6003.527
126	0x45bb9b59	6003.4185
127	0xc5bb9ad2	-6003.3525
128	0xc5bb9bf4	-6003.494
129	0xc5bb9b73	-6003.431
130	0x45bb9b85	6003.44
131	0x45bb9b88	6003.4414
132	0x45bb9bee	6003.491
133	0xc5bb9b81	-6003.438
134	0xc5bb9b25	-6003.393
135	0xc5bb9c9e	-6003.577
136	0xc5bb9c26	-6003.5186
137	0xc5bb9aec	-6003.365
138	0xc5bb9af8	-6003.371
139	0xc5bb9b8c	-6003.4434
140	0xc5bb9bbd	-6003.4673
141	0xc5bb9cdc	-6003.6074
142	0xc5bb9ca8	-6003.582
143	0xc5bb9bc3	-6003.47
144	0x45bb9c3c	6003.5293
145	0x45bb9c66	6003.55
146	0xc5bb9cc5	-6003.596
147	0xc5bb9b62	-6003.423
148	0x45bb9c5e	6003.546
149	0xc5bb9c63	-6003.5483
150	0xc5bb9bf3	-6003.4937
151	0xc5bb9bcf	-6003.476
152	0x45bb9c00	6003.5
153	0xc5bb9c86	-6003.5654
154	0xc5bb9c8a	-6003.5674
155	0xc5bb9c02	-6003.501
156	0xc5bb9aa6	-6003.331
157	0x45bb9c27	6003.519
158	0xc5bb9bd5	-6003.479
159	0xc5bb9aac	-6003.334
160	0x45bb9acf	6003.351
161	0x45bb9c7a	6003.5596
162	0x45bb9b12	6003.384
163	0xc5bb9bbf	-6003.4683
164	0x45bb9ad9	6003.356
165	0x45bb9cb1	6003.5864
166	0x45bb9c22	6003.5166
167	0xc5bb9c12	-6003.509
168	0xc5bb9c10	-6003.508
169	0xc5bb9c73	-6003.556
170	0x45bb9c7b	6003.56
171	0xc5bb9cb9	-6003.5903
172	0x45bb9cb3	6003.5874
173	0xc5bb9b04	-6003.377
174	0x45bb9b70	6003.4297
175	0x45bb9be9	6003.489
176	0x45bb9acf	6003.351
177	0xc5bb9c0d	-6003.5063
178	0xc5bb9b75	-6003.432
179	0xc5bb9bd0	-6003.4766
180	0x45bb9aa2	6003.329
181	0x45bb9bb5	6003.4634
182	0x45bb9c9d	6003.5767
183	0xc5bb9bc4	-6003.4707
184	0xc5bb9b8a	-6003.4424
185	0xc5bb9b46	-6003.409
186	0xc5bb9bb9	-6003.4653
187	0xc5bb9b1b	-6003.388
188	0xc5bb9b22	-6003.3916
189	0xc5bb9b1c	-6003.3887
190	0x45bb9aed	6003.3657
191	0xc5bb9be5	-6003.487
192	0xc5bb9ad0	-6003.3516
193	0xc5bb9c52	-6003.54
194	0x45bb9bc5	6003.471
195	0x45bb9b1e	6003.3896
196	0xc5bb9c19	-6003.512
197	0xc5bb9adb	-6003.357
198	0x45bb9beb	6003.4897
199	0xc5bb9acc	-6003.3496
200	0xc5bb9c28	-6003.5195
201	0xc5bb9bc7	-6003.472
202	0x45bb9b7d	6003.436
203	0xc5bb9c96	-6003.573
204	0xc5bb9cd0	-6003.6016
205	0xc5bb9b5d	-6003.4204
206	0xc5bb9ac9	-6003.348
207	0x45bb9c51	6003.5396
208	0xc5bb9cb2	-6003.587
209	0xc5bb9b95	-6003.4478
210	0x45bb9cda	6003.6064
211	0x45bb9bff	6003.4995
212	0x45bb9ac2	6003.3447
213	0xc5bb9c5c	-6003.545
214	0x45bb9b1f	6003.39
215	0x45bb9ab0	6003.336
216	0x45bb9b05	6003.3774
217	0xc5bb9c9d	-6003.5767
218	0xc5bb9bcf	-6003.476
219	0xc5bb9b01	-6003.3755
220	0x45bb9c6f	6003.554
221	0xc5bb9b66	-6003.425
222	0x45bb9b7b	6003.435
223	0xc5bb9c49	-6003.5356
224	0x45bb9afe	6003.374
225	0x45bb9cc6	6003.5967
226	0x45bb9b13	6003.3843
227	0xc5bb9ad0	-6003.3516
228	0xc5bb9b76	-6003.4326
229	0xc5bb9bb3	-6003.4624
230	0x45bb9b96	6003.448
231	0x45bb9aa4	6003.33
232	0x45bb9b71	6003.43
233	0xc5bb9c5c	-6003.545
234	0xc5bb9c22	-6003.5166
235	0xc5bb9bda	-6003.4814
236	0xc5bb9bc3	-6003.47
237	0xc5bb9c58	-6003.543
238	0xc5bb9b3b	-6003.404
239	0xc5bb9c97	-6003.5737
240	0x45bb9bd8	6003.4805
241	0xc5bb9c32	-6003.5244
242	0xc5bb9aaa	-6003.333
243	0xc5bb9c12	-6003.509
244	0x45bb9c55	6003.5415
245	0x45bb9ca6	6003.581
246	0xc5bb9c66	-6003.55
247	0xc5bb9c93	-6003.572
248	0x45bb9c23	6003.517
249	0xc5bb9c7a	-6003.5596
250	0x45bb9bfe	6003.499
251	0x45bb9b4d	6003.4126
252	0xc5bb9ba3	-6003.4546
253	0x45bb9c0b	6003.5054
254	0x45bb9c88	6003.5664
255	0x45bb9c11	6003.5083

lstm.weight_hh_l1 f4 [200, 50]
0	0xc5bb9bcd	-6003.475
1	0xc5bb9c36	-6003.5264
2	0xc5bb9c3b	-6003.529
3	0xc5bb9aad	-6003.3345
4	0x45bb9c11	6003.5083
5	0x45bb9bf2	6003.493
6	0x45bb9bf8	6003.496
7	0xc5bb9cb6	-6003.589
8	0x45bb9af2	6003.368
9	0x45bb9c2f	6003.523
10	0x45bb9af0	6003.367
11	0xc5bb9ba4	-6003.455
12	0xc5bb9aac	-6003.334
13	0x45bb9ada	6003.3564
14	0xc5bb9c85	-6003.565
15	0x45bb9cd4	6003.6035
16	0xc5bb9afc	-6003.373
17	0xc5bb9bef	-6003.4917
18	0x45bb9b6c	6003.4277
19	0xc5bb9b44	-6003.408
20	0xc5bb9a9d	-6003.3267
21	0x45bb9b53	6003.4155
22	0x45bb9c79	6003.559
23	0xc5bb9c4a	-6003.536
24	0x45bb9c80	6003.5625
25	0x45bb9cb4	6003.588
26	0x45bb9abb	6003.3413
27	0xc5bb9ab3	-6003.3374
28	0x45bb9c96	6003.573
29	0xc5bb9c7e	-6003.5615
30	0x45bb9ad4	6003.3535
31	0xc5bb9ac7	-6003.347
32	0x45bb9aed	6003.3657
33	0xc5bb9b82	-6003.4385
34	0x45bb9c65	6003.5493
35	0xc5bb9ae6	-6003.3623
36	0x45bb9ca1	6003.5786
37	0xc5bb9bd8	-6003.4805
38	0x45bb9beb	6003.4897
39	0xc5bb9b2c	-6003.3965
40	0xc5bb9c20	-6003.5156
41	0x45bb9aa6	6003.331
42	0xc5bb9c03	-6003.5015
43	0x45bb9b67	6003.4253
44	0xc5bb9b4a	-6003.411
45	0x45bb9c1c	6003.5137
46	0x45bb9b76	6003.4326
47	0xc5bb9b51	-6003.4146
48	0xc5bb9b9d	-6003.4517
49	0xc5bb9bd9	-6003.481
50	0xc5bb9afe	-6003.374
51	0xc5bb9abc	-6003.342
52	0xc5bb9c67	-6003.5503
53	0xc5bb9b30	-6003.3984
54	0x45bb9b17	6003.386
55	0x45bb9aef	6003.3667
56	0x45bb9ad3	6003.353
57	0xc5bb9b5c	-6003.42
58	0x45bb9bc2	6003.4697
59	0x45bb9bdc	6003.4824
60	0x45bb9bbf	6003.4683
61	0xc5bb9b5f	-6003.4214
62	0xc5bb9b70	-6003.4297
63	0x45bb9cdc	6003.6074
64	0xc5bb9c59	-6003.5435
65	0x45bb9c3a	6003.5283
66	0xc5bb9b41	-6003.4067
67	0xc5bb9c87	-6003.566
68	0x45bb9b78	6003.4336
69	0xc5bb9aaa	-6003.333
70	0xc5bb9ad5	-6003.354
71	0x45bb9bba	6003.466
72	0x45bb9b96	6003.448
73	0xc5bb9cac	-6003.584
74	0x45bb9ae0	6003.3594
75	0x45bb9c80	6003.5625
76	0x45bb9afd	6003.3735
77	0xc5bb9ba6	-6003.456
78	0x45bb9b0c	6003.381
79	0xc5bb9ad1	-6003.352
80	0x45bb9c7c	6003.5605
81	0xc5bb9bd8	-6003.4805
82	0x45bb9b77	6003.433
83	0xc5bb9c6b	-6003.5522
84	0x45bb9c1a	6003.5127
85	0xc5bb9bee	-6003.491
86	0x45bb9bd2	6003.4775
87	0xc5bb9c9b	-6003.5757
88	0x45bb9cb8	6003.59
89	0xc5bb9c3e	-6003.5303
90	0xc5bb9b72	-6003.4307
91	0x45bb9c14	6003.51
92	0xc5bb9c36	-6003.5264
93	0x45bb9ccf	6003.601
94	0xc5bb9b19	-6003.387
95	0x45bb9ab0	6003.336
96	0x45bb9ac1	6003.344
97	0xc5bb9adf	-6003.359
98	0xc5bb9b82	-6003.4385
99	0xc5bb9b1a	-6003.3877
100	0xc5bb9ab1	-6003.3364
101	0xc5bb9b60	-6003.422
102	0xc5bb9b5b	-6003.4194
103	0xc5bb9adc	-6003.3574
104	0x45bb9a9f	6003.3276
105	0x45bb9c49	6003.5356
106	0x45bb9bf2	6003.493
107	0xc5bb9ab3	-6003.3374
108	0x45bb9c70	6003.5547
109	0x45bb9ba6	6003.456
110	0x45bb9ca8	6003.582
111	0xc5bb9c0b	-6003.5054
112	0xc5bb9c15	-6003.5103
113	0x45bb9c34	6003.5254
114	0xc5bb9bc1	-6003.469
115	0x45bb9cc7	6003.597
116	0xc5bb9bc6	-6003.4717
117	0xc5bb9b31	-6003.399
118	0x45bb9c60	6003.547
119	0xc5bb9ba5	-6003.4556
120	0xc5bb9ab7	-6003.3394
121	0x45bb9aa4	6003.33
122	0x45bb9c5e	6003.546
123	0xc5bb9c55	-6003.5415
124	0x45bb9b63	6003.4233
125	0x45bb9c7b	6003.56
126	0x45bb9ba4	6003.455
127	0xc5bb9ba4	-6003.455
128	0x45bb9cdc	6003.6074
129	0xc5bb9b85	-6003.44
130	0x45bb9b16	6003.3857
131	0xc5bb9b1c	-6003.3887
132	0x45bb9cbb	6003.5913
133	0xc5bb9ba4	-6003.455
134	0x45bb9b07	6003.3784
135	0xc5bb9add	-6003.358
136	0x45bb9c57	6003.5425
137	0xc5bb9c6e	-6003.5537
138	0x45bb9c7b	6003.56
139	0xc5bb9cd9	-6003.606
140	0xc5bb9c97	-6003.5737
141	0x45bb9bc4	6003.4707
142	0xc5bb9b2c	-6003.3965
143	0x45bb9c44	6003.533
144	0xc5bb9be8	-6003.4883
145	0x45bb9cab	6003.5835
146	0x45bb9c44	6003.533
147	0xc5bb9c53	-6003.5405
148	0xc5bb9b84	-6003.4395
149	0xc5bb9b32	-6003.3994
150	0xc5bb9a9e	-6003.327
151	0xc5bb9b67	-6003.4253
152	0xc5bb9cb0	-6003.586
153	0xc5bb9c8b	-6003.568
154	0x45bb9aaa	6003.333
155	0x45bb9ca4	6003.58
156	0x45bb9c05	6003.5024
157	0xc5bb9be4	-6003.4863
158	0x45bb9c19	6003.512
159	0x45bb9b0e	6003.382
160	0x45bb9bf0	6003.492
161	0xc5bb9b1c	-6003.3887
162	0xc5bb9c55	-6003.5415
163	0x45bb9bf2	6003.493
164	0xc5bb9b74	-6003.4316
165	0x45bb9c47	6003.5347
166	0xc5bb9b48	-6003.41
167	0xc5bb9cd2	-6003.6025
168	0x45bb9b7d	6003.436
169	0xc5bb9c89	-6003.567
170	0xc5bb9cc0	-6003.5938
171	0x45bb9c53	6003.5405
172	0x45bb9ad0	6003.3516
173	0xc5bb9cc8	-6003.5977
174	0x45bb9c92	6003.5713
175	0x45bb9ae5	6003.362
176	0x45bb9c1c	6003.5137
177	0xc5bb9b97	-6003.4487
178	0x45bb9aab	6003.3335
179	0xc5bb9bec	-6003.49
180	0x45bb9a99	6003.3247
181	0xc5bb9ab5	-6003.3384
182	0x45bb9c91	6003.571
183	0xc5bb9cac	-6003.584
184	0x45bb9bf0	6003.492
185	0xc5bb9c0c	-6003.506
186	0x45bb9b8d	6003.444
187	0xc5bb9c55	-6003.5415
188	0x45bb9c11	6003.5083
189	0xc5bb9bf9	-6003.4966
190	0xc5bb9b1b	-6003.388
191	0x45bb9bfe	6003.499
192	0xc5bb9c6b	-6003.5522
193	0x45bb9c4f	6003.5386
194	0xc5bb9ac7	-6003.347
195	0x45bb9ccf	6003.601
196	0x45bb9b5f	6003.4214
197	0xc5bb9b50	-6003.414
198	0xc5bb9acf	-6003.351
199	0xc5bb9b8e	-6003.4443
200	0xc5bb9b63	-6003.4233
201	0xc5bb9b62	-6003.423
202	0xc5bb9b93	-6003.447
203	0xc5bb9c80	-6003.5625
204	0x45bb9b6b	6003.4272
205	0x45bb9c4c	6003.537
206	0x45bb9b35	6003.401
207	0xc5bb9c28	-6003.5195
208	0x45bb9b82	6003.4385
209	0x45bb9c25	6003.518
210	0x45bb9bc0	6003.4688
211	0xc5bb9bb8	-6003.465
212	0xc5bb9ab9	-6003.3403
213	0x45bb9b25	6003.393
214	0xc5bb9aa0	-6003.328
215	0x45bb9c9e	6003.577
216	0xc5bb9bc5	-6003.471
217	0xc5bb9b14	-6003.385
218	0x45bb9ae0	6003.3594
219	0xc5bb9cad	-6003.5845
220	0xc5bb9b71	-6003.43
221	0x45bb9cca	6003.5986
222	0x45bb9c1b	6003.513
223	0xc5bb9c1d	-6003.514
224	0x45bb9c90	6003.5703
225	0x45bb9c1f	6003.515
226	0x45bb9c3f	6003.531
227	0xc5bb9c2b	-6003.521
228	0x45bb9c38	6003.5273
229	0xc5bb9cc8	-6003.5977
230	0x45bb9cc9	6003.598
231	0xc5bb9c04	-6003.502
232	0x45bb9c73	6003.556
233	0xc5bb9c8b	-6003.568
234	0x45bb9ad0	6003.3516
235	0xc5bb9c77	-6003.558
236	0x45bb9b7b	6003.435
237	0xc5bb9ab1	-6003.3364
238	0x45bb9c6c	6003.5527
239	0xc5bb9b35	-6003.401
240	0xc5bb9abc	-6003.342
241	0x45bb9cbf	6003.5933
242	0xc5bb9c0f	-6003.5073
243	0x45bb9b82	6003.4385
244	0xc5bb9aa1	-6003.3286
245	0x45bb9acd	6003.35
246	0x45bb9ae2	6003.3604
247	0xc5bb9c1e	-6003.5146
248	0xc5bb9af3	-6003.3687
249	0xc5bb9aac	-6003.334
250	0x45bb9b61	6003.4224
251	0x45bb9acc	6003.3496
252	0x45bb9c8a	6003.5674
253	0x45bb9aa0	6003.328
254	0xc5bb9bf3	-6003.4937
255	0xc5bb9bf4	-6003.494

lstm.bias_ih_l1 f4 [200]
0	0x45bb9bde	6003.4834
1	0x45bb9b3a	6003.4033
2	0x45bb9c26	6003.5186
3	0x45bb9ac1	6003.344
4	0x45bb9b55	6003.4165
5	0xc5bb9c5c	-6003.545
6	0x45bb9bb8	6003.465
7	0xc5bb9ae1	-6003.36
8	0xc5bb9b95	-6003.4478
9	0xc5bb9bc8	-6003.4727
10	0x45bb9c1b	6003.513
11	0xc5bb9abf	-6003.3433
12	0xc5bb9c73	-6003.556
13	0x45bb9c3d	6003.53
14	0xc5bb9adc	-6003.3574
15	0xc5bb9bd7	-6003.48
16	0x45bb9c60	6003.547
17	0xc5bb9c20	-6003.5156
18	0xc5bb9bd8	-6003.4805
19	0xc5bb9b52	-6003.415
20	0xc5bb9adb	-6003.357
21	0x45bb9b0c	6003.381
22	0xc5bb9bf4	-6003.494
23	0x45bb9afd	6003.3735
24	0xc5bb9c54	-6003.541
25	0x45bb9bfa	6003.497
26	0xc5bb9b26	-6003.3936
27	0x45bb9b60	6003.422
28	0x45bb9a9e	6003.327
29	0xc5bb9b6b	-6003.4272
30	0xc5bb9c1e	-6003.5146
31	0xc5bb9be6	-6003.4873
32	0x45bb9c93	6003.572
33	0x45bb9b8e	6003.4443
34	0x45bb9c53	6003.5405
35	0x45bb9b6a	6003.427
36	0x45bb9b6c	6003.4277
37	0xc5bb9a9c	-6003.326
38	0xc5bb9ace	-6003.3506
39	0xc5bb9ca6	-6003.581
40	0x45bb9c4f	6003.5386
41	0x45bb9c6e	6003.5537
42	0xc5bb9ae4	-6003.3613
43	0x45bb9af3	6003.3687
44	0x45bb9b8c	6003.4434
45	0x45bb9ad1	6003.352
46	0xc5bb9cd8	-6003.6055
47	0xc5bb9ca1	-6003.5786
48	0x45bb9b65	6003.4243
49	0x45bb9c19	6003.512
50	0x45bb9cc2	6003.5947
51	0x45bb9cca	6003.5986
52	0x45bb9acf	6003.351
53	0x45bb9c83	6003.564
54	0x45bb9c48	6003.535
55	0xc5bb9c54	-6003.541
56	0x45bb9b52	6003.415
57	0xc5bb9a9c	-6003.326
58	0xc5bb9bbf	-6003.4683
59	0xc5bb9bee	-6003.491
60	0x45bb9c6c	6003.5527
61	0xc5bb9b00	-6003.375
62	0xc5bb9c5c	-6003.545
63	0x45bb9bb4	6003.463
64	0xc5bb9bfb	-6003.4976
65	0xc5bb9afb	-6003.3726
66	0x45bb9c92	6003.5713
67	0xc5bb9ae3	-6003.361
68	0xc5bb9ab9	-6003.3403
69	0xc5bb9cc6	-6003.5967
70	0xc5bb9bd1	-6003.477
71	0x45bb9c7b	6003.56
72	0xc5bb9c5b	-6003.5444
73	0x45bb9cad	6003.5845
74	0xc5bb9bd6	-6003.4795
75	0x45bb9b28	6003.3945
76	0xc5bb9ad2	-6003.3525
77	0x45bb9b15	6003.3853
78	0x45bb9ae6	6003.3623
79	0xc5bb9bfd	-6003.4985
80	0xc5bb9bec	-6003.49
81	0xc5bb9be5	-6003.487
82	0x45bb9cb4	6003.588
83	0x45bb9c07	6003.5034
84	0x45bb9c65	6003.5493
85	0x45bb9c3b	6003.529
86	0x45bb9c0f	6003.5073
87	0xc5bb9bda	-6003.4814
88	0xc5bb9b96	-6003.448
89	0xc5bb9bc4	-6003.4707
90	0x45bb9bf7	6003.4956
91	0x45bb9c23	6003.517
92	0xc5bb9c1c	-6003.5137
93	0x45bb9c72	6003.5557
94	0x45bb9b2f	6003.398
95	0x45bb9c01	6003.5005
96	0xc5bb9bd8	-6003.4805
97	0xc5bb9b57	-6003.4175
98	0x45bb9ace	6003.3506
99	0x45bb9ba5	6003.4556
100	0xc5bb9c18	-6003.5117
101	0xc5bb9c94	-6003.5723
102	0xc5bb9b47	-6003.4097
103	0xc5bb9b6a	-6003.427
104	0x45bb9c75	6003.557
105	0xc5bb9b73	-6003.431
106	0x45bb9c2b	6003.521
107	0x45bb9ad0	6003.3516
108	0xc5bb9c07	-6003.5034
109	0xc5bb9c49	-6003.5356
110	0x45bb9bac	6003.459
111	0x45bb9b40	6003.4062
112	0x45bb9b42	6003.407
113	0x45bb9c0f	6003.5073
114	0x45bb9b6e	6003.4287
115	0xc5bb9ba0	-6003.453
116	0xc5bb9ba5	-6003.4556
117	0x45bb9b49	6003.4106
118	0xc5bb9b69	-6003.4263
119	0x45bb9b63	6003.4233
120	0x45bb9bef	6003.4917
121	0x45bb9c29	6003.52
122	0xc5bb9a9f	-6003.3276
123	0xc5bb9b17	-6003.386
124	0xc5bb9ab2	-6003.337
125	0x45bb9af2	6003.368
126	0xc5bb9b7f	-6003.437
127	0xc5bb9c05	-6003.5024
128	0x45bb9b74	6003.4316
129	0x45bb9b12	6003.384
130	0xc5bb9ba4	-6003.455
131	0x45bb9bcd	6003.475
132	0x45bb9b42	6003.407
133	0xc5bb9b49	-6003.4106
134	0x45bb9cd5	6003.604
135	0xc5bb9c13	-6003.5093
136	0x45bb9cca	6003.5986
137	0x45bb9b5b	6003.4194
138	0xc5bb9bd8	-6003.4805
139	0x45bb9baa	6003.458
140	0xc5bb9c62	-6003.548
141	0x45bb9aca	6003.3486
142	0x45bb9b73	6003.431
143	0x45bb9bc2	6003.4697
144	0xc5bb9c97	-6003.5737
145	0x45bb9bf2	6003.493
146	0xc5bb9adb	-6003.357
147	0x45bb9aad	6003.3345
148	0xc5bb9cdd	-6003.608
149	0xc5bb9c5c	-6003.545
150	0x45bb9bae	6003.46
151	0x45bb9cd0	6003.6016
152	0x45bb9c3f	6003.531
153	0x45bb9c06	6003.503
154	0x45bb9b77	6003.433
155	0xc5bb9bd9	-6003.481
156	0x45bb9af3	6003.3687
157	0xc5bb9c73	-6003.556
158	0xc5bb9b25	-6003.393
159	0xc5bb9cb7	-6003.5894
160	0x45bb9b3c	6003.4043
161	0xc5bb9bf6	-6003.495
162	0xc5bb9c68	-6003.551
163	0x45bb9ab5	6003.3384
164	0xc5bb9b15	-6003.3853
165	0xc5bb9adf	-6003.359
166	0x45bb9afd	6003.3735
167	0xc5bb9aea	-6003.3643
168	0xc5bb9af0	-6003.367
169	0xc5bb9ae1	-6003.36
170	0xc5bb9c9c	-6003.576
171	0x45bb9c65	6003.5493
172	0xc5bb9cd9	-6003.606
173	0x45bb9c02	6003.501
174	0xc5bb9b77	-6003.433
175	0x45bb9aa1	6003.3286
176	0xc5bb9c6c	-6003.5527
177	0x45bb9b04	6003.377
178	0x45bb9bf7	6003.4956
179	0xc5bb9afc	-6003.373
180	0xc5bb9b50	-6003.414
181	0xc5bb9b8e	-6003.4443
182	0x45bb9c49	6003.5356
183	0x45bb9b08	6003.379
184	0x45bb9b93	6003.447
185	0x45bb9bc6	6003.4717
186	0x45bb9b65	6003.4243
187	0xc5bb9c70	-6003.5547
188	0xc5bb9ae3	-6003.361
189	0xc5bb9b2d	-6003.397
190	0x45bb9c34	6003.5254
191	0x45bb9cc4	6003.5957
192	0xc5bb9abe	-6003.343
193	0x45bb9c82	6003.5635
194	0x45bb9abd	6003.3423
195	0x45bb9ae7	6003.363
196	0xc5bb9b0a	-6003.38
197	0xc5bb9b0b	-6003.3804
198	0x45bb9c74	6003.5566
199	0x45bb9a9b	6003.3257

lstm.bias_hh_l1 f4 [200]
0	0x45bb9cd3	6003.603
1	0x45bb9bad	6003.4595
2	0x45bb9c2f	6003.523
3	0x45bb9ad2	6003.3525
4	0x45bb9ca2	6003.579
5	0xc5bb9ae4	-6003.3613
6	0x45bb9bf9	6003.4966
7	0xc5bb9abe	-6003.343
8	0xc5bb9acc	-6003.3496
9	0xc5bb9cb2	-6003.587
10	0x45bb9af2	6003.368
11	0xc5bb9cdb	-6003.607
12	0xc5bb9b70	-6003.4297
13	0x45bb9bf3	6003.4937
14	0xc5bb9cd8	-6003.6055
15	0xc5bb9c4e	-6003.538
16	0x45bb9b01	6003.3755
17	0xc5bb9b42	-6003.407
18	0xc5bb9b1e	-6003.3896
19	0xc5bb9ae6	-6003.3623
20	0xc5bb9c69	-6003.5513
21	0x45bb9acf	6003.351
22	0xc5bb9ba5	-6003.4556
23	0x45bb9c95	6003.5728
24	0xc5bb9ae1	-6003.36
25	0x45bb9b3d	6003.405
26	0xc5bb9c8a	-6003.5674
27	0x45bb9c14	6003.51
28	0x45bb9b3b	6003.404
29	0xc5bb9c5d	-6003.5454
30	0xc5bb9c32	-6003.5244
31	0xc5bb9c09	-6003.5044
32	0x45bb9c53	6003.5405
33	0x45bb9b03	6003.3765
34	0x45bb9c41	6003.5317
35	0x45bb9c6d	6003.553
36	0x45bb9ae0	6003.3594
37	0xc5bb9bdc	-6003.4824
38	0xc5bb9cdc	-6003.6074
39	0xc5bb9b0f	-6003.3823
40	0x45bb9bdf	6003.484
41	0x45bb9aae	6003.335
42	0xc5bb9c76	-6003.5576
43	0x45bb9b7c	6003.4355
44	0x45bb9ac5	6003.346
45	0x45bb9c19	6003.512
46	0xc5bb9b8c	-6003.4434
47	0xc5bb9c61	-6003.5474
48	0x45bb9aae	6003.335
49	0x45bb9c84	6003.5645
50	0x45bb9c56	6003.542
51	0x45bb9af5	6003.3696
52	0x45bb9ad1	6003.352
53	0x45bb9cb3	6003.5874
54	0x45bb9b70	6003.4297
55	0xc5bb9c9e	-6003.577
56	0x45bb9b4c	6003.412
57	0xc5bb9be2	-6003.4854
58	0xc5bb9b4d	-6003.4126
59	0xc5bb9c88	-6003.5664
60	0x45bb9c61	6003.5474
61	0xc5bb9b3c	-6003.4043
62	0xc5bb9b8b	-6003.443
63	0x45bb9b25	6003.393
64	0xc5bb9c63	-6003.5483
65	0xc5bb9ace	-6003.3506
66	0x45bb9c6e	6003.5537
67	0xc5bb9b80	-6003.4375
68	0xc5bb9aa2	-6003.329
69	0xc5bb9b5c	-6003.42
70	0xc5bb9cba	-6003.591
71	0x45bb9bef	6003.4917
72	0xc5bb9ac8	-6003.3477
73	0x45bb9c2e	6003.5225
74	0xc5bb9c16	-6003.5107
75	0x45bb9bb3	6003.4624
76	0xc5bb9c00	-6003.5
77	0x45bb9b35	6003.401
78	0x45bb9b2c	6003.3965
79	0xc5bb9c28	-6003.5195
80	0xc5bb9cb7	-6003.5894
81	0xc5bb9b95	-6003.4478
82	0x45bb9b01	6003.3755
83	0x45bb9c57	6003.5425
84	0x45bb9c6f	6003.554
85	0x45bb9ca7	6003.5815
86	0x45bb9c59	6003.5435
87	0xc5bb9cc2	-6003.5947
88	0xc5bb9cd8	-6003.6055
89	0xc5bb9bf2	-6003.493
90	0x45bb9cad	6003.5845
91	0x45bb9b5e	6003.421
92	0xc5bb9be4	-6003.4863
93	0x45bb9be0	6003.4844
94	0x45bb9ad8	6003.3555
95	0x45bb9b4f	6003.4136
96	0xc5bb9b3d	-6003.405
97	0xc5bb9bbd	-6003.4673
98	0x45bb9cb0	6003.586
99	0x45bb9ca2	6003.579
100	0xc5bb9cd2	-6003.6025
101	0xc5bb9c08	-6003.504
102	0xc5bb9c95	-6003.5728
103	0xc5bb9c54	-6003.541
104	0x45bb9b62	6003.423
105	0xc5bb9ae2	-6003.3604
106	0x45bb9b3e	6003.4053
107	0x45bb9b7f	6003.437
108	0xc5bb9af6	-6003.37
109	0xc5bb9b19	-6003.387
110	0x45bb9c78	6003.5586
111	0x45bb9b09	6003.3794
112	0x45bb9af5	6003.3696
113	0x45bb9b8c	6003.4434
114	0x45bb9acd	6003.35
115	0xc5bb9b0b	-6003.3804
116	0xc5bb9c9b	-6003.5757
117	0x45bb9bfb	6003.4976
118	0xc5bb9bdd	-6003.483
119	0x45bb9af4	6003.369
120	0x45bb9b00	6003.375
121	0x45bb9c26	6003.5186
122	0xc5bb9cb1	-6003.5864
123	0xc5bb9c43	-6003.5327
124	0xc5bb9aa8	-6003.332
125	0x45bb9c7e	6003.5615
126	0xc5bb9b86	-6003.4404
127	0xc5bb9c59	-6003.5435
128	0x45bb9c65	6003.5493
129	0x45bb9bdd	6003.483
130	0xc5bb9b25	-6003.393
131	0x45bb9aa6	6003.331
132	0x45bb9bc2	6003.4697
133	0xc5bb9ccf	-6003.601
134	0x45bb9b49	6003.4106
135	0xc5bb9cca	-6003.5986
136	0x45bb9cbb	6003.5913
137	0x45bb9ac2	6003.3447
138	0xc5bb9bfa	-6003.497
139	0x45bb9b60	6003.422
140	0xc5bb9bd8	-6003.4805
141	0x45bb9cc3	6003.595
142	0x45bb9bba	6003.466
143	0x45bb9bce	6003.4756
144	0xc5bb9c3b	-6003.529
145	0x45bb9c5a	6003.544
146	0xc5bb9bee	-6003.491
147	0x45bb9b61	6003.4224
148	0xc5bb9ad0	-6003.3516
149	0xc5bb9b17	-6003.386
150	0x45bb9b1c	6003.3887
151	0x45bb9cd4	6003.6035
152	0x45bb9c97	6003.5737
153	0x45bb9b70	6003.4297
154	0x45bb9aaf	6003.3354
155	0xc5bb9c96	-6003.573
156	0x45bb9afc	6003.373
157	0xc5bb9c21	-6003.516
158	0xc5bb9baf	-6003.4604
159	0xc5bb9c42	-6003.532
160	0x45bb9bfb	6003.4976
161	0xc5bb9c97	-6003.5737
162	0xc5bb9c2e	-6003.5225
163	0x45bb9b76	6003.4326
164	0xc5bb9b45	-6003.4087
165	0xc5bb9bcc	-6003.4746
166	0x45bb9b20	6003.3906
167	0xc5bb9cbc	-6003.592
168	0xc5bb9b6a	-6003.427
169	0xc5bb9b5d	-6003.4204
170	0xc5bb9ba0	-6003.453
171	0x45bb9ca8	6003.582
172	0xc5bb9b4c	-6003.412
173	0x45bb9aad	6003.3345
174	0xc5bb9b95	-6003.4478
175	0x45bb9bd6	6003.4795
176	0xc5bb9b5a	-6003.419
177	0x45bb9b81	6003.438
178	0x45bb9cc6	6003.5967
179	0xc5bb9ca9	-6003.5825
180	0xc5bb9aee	-6003.366
181	0xc5bb9b52	-6003.415
182	0x45bb9b5e	6003.421
183	0x45bb9cdc	6003.6074
184	0x45bb9c7a	6003.5596
185	0x45bb9c41	6003.5317
186	0x45bb9b77	6003.433
187	0xc5bb9c03	-6003.5015
188	0xc5bb9af7	-6003.3706
189	0xc5bb9b30	-6003.3984
190	0x45bb9cd7	6003.605
191	0x45bb9cc1	6003.594
192	0xc5bb9a9f	-6003.3276
193	0x45bb9ca4	6003.58
194	0x45bb9aa3	6003.3296
195	0x45bb9be1	6003.485
196	0xc5bb9aed	-6003.3657
197	0xc5bb9cc1	-6003.594
198	0x45bb9c4e	6003.538
199	0x45bb9ca3	6003.5796

fc.weight f4 [1, 50]
0	0xc5818dd0	-4145.7266
1	0xc5772047	-3954.0173
2	0xc5690a0d	-3728.6282
3	0xc572392c	-3875.5732
4	0x457570dd	3927.054
5	0x45bb9b2c	6003.3965
6	0x456ca82f	3786.5115
7	0xc5bb9b27	-6003.394
8	0x45bb9b57	6003.4175
9	0x45bb9b99	6003.4497
10	0x457e7d80	4071.8438
11	0xc5bb9b1d	-6003.389
12	0xc5bb9aaf	-6003.3354
13	0x456922dd	3730.179
14	0xc5bb9ac2	-6003.3447
15	0x45bb9b77	6003.433
16	0xc56d8fcf	-3800.988
17	0xc5bb9b97	-6003.4487
18	0x45bb9aea	6003.3643
19	0xc5bb9ae8	-6003.3633
20	0xc5bb9b31	-6003.399
21	0x4575bf0b	3931.9402
22	0x45bb9b45	6003.4087
23	0xc56e59dd	-3813.6165
24	0x45bb9aff	6003.3745
25	0x4569aec1	3738.922
26	0x45bb9b34	6003.4004
27	0xc57bf428	-4031.2598
28	0x4572ca06	3884.6265
29	0xc5bb9b26	-6003.3936
30	0x45bb9b3b	6003.404
31	0xc5bb9b31	-6003.399
32	0x456e2c83	3810.782
33	0xc57d10a2	-4049.0396
34	0x45770c25	3952.759
35	0xc5773de1	-3955.8674
36	0x45812b75	4133.432
37	0xc5bb9b4e	-6003.413
38	0x45bb9b5c	6003.42
39	0xc5bb9b55	-6003.4165
40	0xc575dd45	-3933.8293
41	0x4574eb91	3918.723
42	0xc5bb9b1a	-6003.3877
43	0x45691253	3729.1453
44	0xc57961bf	-3990.1091
45	0x4579a89b	3994.5378
46	0x45bb9b49	6003.4106
47	0xc5bb9ab7	-6003.3394
48	0xc5727376	-3879.2163
49	0xc56753c6	-3701.2358
